rl/ppo/cartpole/models/ppo_CartPole_v1_final.pth (torch, 217242 bytes, 35 tensors)

input_layer.weight f4 [64, 4]
0	0xbe389924	-0.18027169
1	0x3da799dc	0.08183643
2	0x3ed6e486	0.41971225
3	0xbf2aa1a9	-0.66652924
4	0x3ed89168	0.42298436
5	0xbe223e1e	-0.15844008
6	0xbee2be7d	-0.44285956
7	0xbe90f645	-0.2831289
8	0xbe83f32e	-0.2577147
9	0xbec2a402	-0.38015753
10	0x3d2eafa1	0.04264796
11	0xbf08fdf5	-0.5351251
12	0xbe077ac7	-0.1323043
13	0x3ebf3d29	0.3735135
14	0x3d4bf3a6	0.049792908
15	0xbc4871cf	-0.012234165
16	0xbec6eb16	-0.3885123
17	0x3ea92a7e	0.3304023
18	0x3f804a64	1.0022702
19	0x3caa3260	0.020775974
20	0x3eec3b4a	0.46138984
21	0x3ea1e122	0.31617075
22	0xbeef0f89	-0.4669154
23	0xbe65a033	-0.22424392
24	0xbeead417	-0.45864937
25	0xbeb145ef	-0.34623668
26	0xbea7432e	-0.32668442
27	0x3e835000	0.25646973
28	0x3e116d7c	0.14201921
29	0xbe9714a2	-0.2950793
30	0xbe97858a	-0.2959407
31	0xbedd91db	-0.4327534
32	0xbe3c9849	-0.18417467
33	0xbdad0255	-0.084477104
34	0x3f0f6a8e	0.56021965
35	0xba0b2e34	-0.0005309314
36	0x3d1da698	0.038488954
37	0x3e941c04	0.28927624
38	0x3eede391	0.46462682
39	0x3f109adf	0.56486315
40	0x3e56218a	0.20911232
41	0xbef70b34	-0.48250735
42	0xbee0dd24	-0.43918717
43	0xbf12fb9b	-0.5741517
44	0xbe3b3f9b	-0.18285982
45	0x3cce4de0	0.025183618
46	0xbe879931	-0.26484063
47	0xbf0aa394	-0.5415585
48	0xbe996499	-0.29959562
49	0xbf1f6d95	-0.62276584
50	0xbe801e24	-0.25022995
51	0xbf019d31	-0.5063048
52	0x3d54457c	0.051824078
53	0xbe25d6ae	-0.16195175
54	0x3f68ed55	0.9098714
55	0x3deb818f	0.11499321
56	0xbe44933d	-0.19196792
57	0xbe1d00a5	-0.15332277
58	0xbc16907d	-0.009189722
59	0x3c8c3b2a	0.017118055
60	0x3e84229f	0.25807664
61	0x3e374e98	0.17901075
62	0xbe656088	-0.22400105
63	0xbe56636c	-0.20936364
64	0x3d1fdcbe	0.039028876
65	0x3d2a66b8	0.041601866
66	0x3f17271c	0.5904405
67	0x3f0a2813	0.539674
68	0x3e62e3c4	0.22157198
69	0x3e34fd81	0.17674829
70	0xbf434133	-0.7627136
71	0xbef7915e	-0.48353094
72	0xbedd4255	-0.4321467
73	0x3f122603	0.5708925
74	0x3e0a56d7	0.1350969
75	0x3f08e7be	0.5347861
76	0x3ee267f3	0.44219932
77	0x3e1a47ea	0.15066496
78	0x3e6ba626	0.230126
79	0xbe441632	-0.19149092
80	0x3e0f6cfe	0.14006421
81	0x3beb368f	0.0071781348
82	0x3e028ca6	0.12748966
83	0xbee8e538	-0.4548738
84	0xbdbe7145	-0.09298948
85	0xbf04c743	-0.5186655
86	0xbe844844	-0.25836384
87	0xbe6bf824	-0.23043877
88	0xbc1da6eb	-0.009622316
89	0xbb59b7a9	-0.0033221042
90	0xbf053692	-0.5203639
91	0xbd9af692	-0.07566561
92	0xbdaf3c77	-0.08556455
93	0xbe9511fe	-0.2911529
94	0x3e792104	0.24329
95	0xbebf30fa	-0.37342054
96	0x3eb5e34c	0.35524976
97	0xbd48b907	-0.04900458
98	0x3ea9c2a0	0.331563
99	0x3e67ceb9	0.22637452
100	0x3d960271	0.073246844
101	0x3de7702a	0.113006905
102	0x3f12bdb7	0.5732073
103	0xbe192723	-0.14956336
104	0xbe836401	-0.25662234
105	0x3e9a1b2f	0.30098864
106	0xbe73a26d	-0.2379243
107	0xbf246a94	-0.64225125
108	0xbe7606cf	-0.24026035
109	0x3e571d7c	0.21007341
110	0xbf2d6fa1	-0.6774846
111	0xbeadc957	-0.33942673
112	0x3e0bfb1c	0.1367001
113	0xbe4ee370	-0.20203948
114	0x3d424e80	0.047438145
115	0xbe669d8c	-0.22521037
116	0x3ec57f84	0.3857385
117	0xbebed4bd	-0.3727168
118	0xbf42782e	-0.7596463
119	0x3e9d14be	0.30679888
120	0xbf090f0f	-0.535386
121	0x3f1061ac	0.56399035
122	0x3f80cecf	1.0063113
123	0x3e7ea086	0.24865922
124	0xbe347ed0	-0.176265
125	0x3ec0ec09	0.3768008
126	0x3ea87fba	0.32909948
127	0x3ea63de2	0.32469088
128	0x3ee06009	0.4382327
129	0xbf1b6d81	-0.60713965
130	0xbf1a5fce	-0.60302436
131	0xbe5ec3ba	-0.21754351
132	0xbec714cf	-0.38883063
133	0xbeba86e2	-0.36431032
134	0xbf54f9a8	-0.83193445
135	0xbe822f12	-0.25426537
136	0xbec42338	-0.3830812
137	0xbee046cc	-0.43804014
138	0x3f0b2b4a	0.5436293
139	0x3eb3a57a	0.35087186
140	0x3e60a043	0.21936135
141	0xbe8b3b19	-0.27193525
142	0xbe0e4ad3	-0.1389573
143	0xbec16dae	-0.3777899
144	0x3e9f1441	0.3107014
145	0x3f02efff	0.51147455
146	0x3f461f51	0.77391535
147	0x3e4c2587	0.1993619
148	0x3dbda77f	0.09260463
149	0x3e8cac45	0.2747518
150	0xbe8054ff	-0.25064847
151	0xbf101bc0	-0.56292343
152	0xbdb92ded	-0.09041963
153	0xbe0f73f4	-0.14009076
154	0xbf46cf1e	-0.77659786
155	0xbf1097a1	-0.5648137
156	0x3ea5e555	0.3240153
157	0xbe9fa739	-0.31182268
158	0xbed70d39	-0.42002276
159	0xbe8f9b17	-0.28048012
160	0x3eae7cd1	0.34079602
161	0xbe22f112	-0.15912274
162	0x3ebb50f0	0.36585188
163	0x3e1cea32	0.15323713
164	0xbe897e6d	-0.26854268
165	0x3e4d5529	0.20052017
166	0x3e83e7b3	0.2576271
167	0x3e89e192	0.2692991
168	0x3d391211	0.045183245
169	0xbd8a925a	-0.067661956
170	0xbf0f8cbd	-0.56074125
171	0xbea6ab99	-0.32552794
172	0xbcd1b649	-0.025599616
173	0xbf1140cb	-0.5673949
174	0xbee1bf80	-0.44091415
175	0xbec7372a	-0.38909274
176	0xbecc8b77	-0.39950153
177	0x3eeb6906	0.45978564
178	0x3e8a3a25	0.26997486
179	0xbf050c87	-0.5197224
180	0x3ef0c3df	0.47024438
181	0xbf0f08ee	-0.55873
182	0xbcda514d	-0.026650095
183	0xbe011f57	-0.12609611
184	0x3ecbf0ee	0.39832252
185	0xbeaa6c22	-0.33285624
186	0x3e9eacec	0.30991304
187	0xbe73786d	-0.23776408
188	0x3d28c440	0.041202784
189	0xbd347f50	-0.044066727
190	0xbd7f88b0	-0.062386215
191	0x3e1e5cc8	0.1546508
192	0x3e7e8106	0.24853906
193	0xbdd06a5e	-0.10176538
194	0xbeabd5f0	-0.3356166
195	0xbdfe8e3e	-0.12429474
196	0xbe5b7159	-0.21429957
197	0xbe1610ce	-0.14654848
198	0x3ec264a9	0.37967423
199	0x3e4ef474	0.20210439
200	0xbeec14c9	-0.46109608
201	0xbe73f7a3	-0.23824935
202	0x3ee3fbd8	0.4452808
203	0x3f25c749	0.6475721
204	0x3e8b85ca	0.2725051
205	0xbe5a6c3e	-0.21330354
206	0x3ef608a4	0.48053467
207	0x3ee47516	0.4462058
208	0x3ed23adc	0.4106053
209	0xbea273ad	-0.3172888
210	0xbd562631	-0.052282516
211	0xbebc072e	-0.36724228
212	0x3d544345	0.051821966
213	0x3ec89fd3	0.39184436
214	0x3efdd4c5	0.49576393
215	0xbd802fd0	-0.062591195
216	0x3e508776	0.20364174
217	0xbec99400	-0.39370728
218	0xbefa1d07	-0.4885027
219	0xbe0f2ecb	-0.13982694
220	0xbeb48964	-0.3526107
221	0xbf23e279	-0.64017445
222	0xbf69faf1	-0.9139853
223	0xbecca1d6	-0.3996722
224	0xbd38d641	-0.045126203
225	0x3c5e42c5	0.013565724
226	0xbd84021a	-0.06445713
227	0xbe3a84ac	-0.18214673
228	0xbea01514	-0.3126608
229	0x3e12a1f8	0.14319599
230	0xbea682fc	-0.32521808
231	0xbefb7139	-0.4910982
232	0xbec135a4	-0.37736237
233	0xbed38f9b	-0.413205
234	0x3ef7b90e	0.48383373
235	0xbcb8c30d	-0.022553945
236	0xbe930b7c	-0.287197
237	0x3cdc39d2	0.02688304
238	0x3f4f428b	0.8096091
239	0x3e6b1dfc	0.22960657
240	0xbea70b64	-0.32625878
241	0xbe906836	-0.28204507
242	0x3f33f704	0.7029879
243	0x3f2c524f	0.6731309
244	0xbe54ab9c	-0.20768589
245	0x3de9b25a	0.11410971
246	0x3e934a2a	0.2876752
247	0xbd6e089f	-0.05811369
248	0x3dcd8d44	0.1003671
249	0xbeff3233	-0.49842986
250	0xbf551cd5	-0.8324712
251	0xbe7ca14a	-0.24670902
252	0x3e1459fe	0.14487454
253	0xbe67d61d	-0.22640271
254	0xbf4beafc	-0.7965543
255	0xbeef8e21	-0.46788123

input_layer.bias f4 [64]
0	0xbe5b298a	-0.21402565
1	0x3de8c515	0.113657154
2	0xbe8df17f	-0.2772331
3	0x3dded6de	0.108808264
4	0x3e0deccc	0.13859862
5	0x3b35ed8f	0.0027760004
6	0xbe7e7de3	-0.2485271
7	0xbe4f7db2	-0.20262793
8	0x3eed7a28	0.4638226
9	0x3e82a8de	0.2551946
10	0x3eeb5700	0.45964813
11	0x3e0ec8b1	0.13943745
12	0x3d8dbbff	0.06920623
13	0x3dff8f44	0.124784976
14	0xbebeb92b	-0.37250647
15	0xbe8a4021	-0.2700205
16	0x3e32de2e	0.17467567
17	0x3ebe9429	0.37222412
18	0x3e0e85cc	0.13918227
19	0xbed09f52	-0.40746552
20	0xbec6585c	-0.38739288
21	0xbe808180	-0.250988
22	0xbdcf9b83	-0.101370834
23	0xbef1f23b	-0.4725512
24	0xbea877af	-0.3290381
25	0xbee852b8	-0.4537561
26	0x3e3a25d7	0.18178497
27	0x3e6e8125	0.23291452
28	0xbe95f6b2	-0.29289776
29	0x3bfe17cb	0.007754301
30	0x3e5e8781	0.21731378
31	0x3e730cd8	0.23735368
32	0x3d58e306	0.05295088
33	0x3d53ace8	0.051678568
34	0xbddd7a98	-0.108143985
35	0x3ec9d24d	0.3941826
36	0x3ecafea2	0.39647394
37	0xba9d4d5e	-0.0012001207
38	0x3e893a81	0.26802447
39	0x3e5fc328	0.2185179
40	0xbe57388a	-0.21017662
41	0x3e8876c2	0.26653105
42	0x3e7328c1	0.23746015
43	0xbe03c324	-0.12867409
44	0x3c166c7d	0.009181139
45	0xbd51ed51	-0.051251713
46	0xbebeccaf	-0.37265536
47	0xbee7bcbe	-0.45261186
48	0x3cf6e224	0.03013713
49	0x3e993728	0.29924893
50	0xbe8bc822	-0.27301127
51	0x3e850f0c	0.25988042
52	0xbee16536	-0.4402253
53	0xbe06017b	-0.13086502
54	0x3eba56a6	0.36394233
55	0x3d55e011	0.05221564
56	0xbd09912c	-0.033585712
57	0x3e4e504e	0.20147821
58	0xbedb6874	-0.4285313
59	0x3ea5fce7	0.32419512
60	0xbb86ec0a	-0.0041174935
61	0xbdb9c054	-0.09069887
62	0x3d2da8b3	0.042397212
63	0x3e13fd6e	0.14452145

res_block1.linear1.weight f4 [64, 64]
0	0x3d5f47b1	0.05451173
1	0xbdb8c53e	-0.09021996
2	0xbdf37300	-0.11887169
3	0xbded5809	-0.11589057
4	0x3d09d235	0.033647735
5	0xbe047c91	-0.12938143
6	0x3bd9e585	0.0066496753
7	0x3d2cfb51	0.04223186
8	0xbdfffad5	-0.12499014
9	0x3d216538	0.03940317
10	0xbd6da4cf	-0.0580185
11	0x3c1d1275	0.00958692
12	0x3c8ff403	0.017572409
13	0x3da0de4b	0.07854899
14	0xbcc84aae	-0.024449673
15	0x3da55987	0.080737166
16	0x3ce90d82	0.028448824
17	0x3c3f6f42	0.011684241
18	0x3b7ab43e	0.0038254405
19	0xbdc94c37	-0.0982899
20	0x3c0bc670	0.008531198
21	0x3d89de7b	0.06731888
22	0xbc7f0759	-0.015565717
23	0xbca23010	-0.019798309
24	0xbd479a8c	-0.04873137
25	0x3cec2320	0.028825343
26	0x3dee47ef	0.11634814
27	0xbdd89217	-0.105747394
28	0x3b44c840	0.0030026585
29	0xb9b8b0a6	-0.00035226828
30	0xbe04719b	-0.12933962
31	0x3dc302a9	0.09521992
32	0x3d8c1c1c	0.06841299
33	0xbda4da92	-0.080495015
34	0x3d1bc28c	0.03802733
35	0xbd597bba	-0.05309651
36	0x3d45014c	0.04809694
37	0xbc5247b5	-0.012834479
38	0xbd84d3dd	-0.06485722
39	0x3da36bdf	0.07979559
40	0xbd7e24d8	-0.062046856
41	0x3df22ec2	0.118253246
42	0xbb86c195	-0.0041124322
43	0xbda10c2c	-0.0786365
44	0x3d1856b6	0.03719207
45	0xbd88baf7	-0.06676286
46	0x3c8f3301	0.017480375
47	0xbd8fcf9c	-0.0702202
48	0x3d1651cc	0.0366991
49	0xbdc4059d	-0.09571383
50	0x3d8b987b	0.06816193
51	0xbd44e41a	-0.048069097
52	0x3d5b36ed	0.05351918
53	0xbdb619cf	-0.08891641
54	0x3c1e1d01	0.00965047
55	0x3ccdb398	0.025110051
56	0xbd7ceaa9	-0.061747227
57	0x3cdb85b3	0.026797151
58	0x3c869097	0.016426368
59	0xbcf52423	-0.029924458
60	0xbd6f09d8	-0.058358997
61	0x3d980345	0.074224986
62	0x3d79ee93	0.061018538
63	0x3cccd6f5	0.025004843
64	0x3ccef837	0.025264842
65	0xbc11fd3a	-0.008910472
66	0xbdcd03ea	-0.10010512
67	0x3d910122	0.07080294
68	0xbb097048	-0.0020971466
69	0x3dd45f91	0.1036979
70	0xbdd7b0e3	-0.10531785
71	0x3d9e289a	0.07722588
72	0xbdad36fd	-0.08457754
73	0xbe524773	-0.20535068
74	0x3e167aca	0.14695278
75	0x3dfcd94f	0.12346136
76	0x3e5dae6e	0.21648571
77	0xbd0c0ca3	-0.03419174
78	0xbd270539	-0.040776465
79	0x3e06f584	0.13179594
80	0xbe5ecb2a	-0.21757188
81	0x3d185ad8	0.03719601
82	0xbe7e8a36	-0.24857411
83	0xbd2396de	-0.0399388
84	0x3c5498a1	0.012975843
85	0xbd8d6b73	-0.0690526
86	0x3cc55727	0.024089409
87	0x3d867a0e	0.06566249
88	0xbd70815d	-0.05871712
89	0xbd981200	-0.07425308
90	0x3e32307c	0.17401308
91	0x3dc650ea	0.09683402
92	0xbdd35bc0	-0.10320234
93	0x3df40924	0.11915806
94	0xbdfa0041	-0.1220708
95	0xbd6f8b80	-0.058482647
96	0x3e1fefe3	0.15618853
97	0x3be2eaa8	0.006924946
98	0x3d59dcca	0.053189076
99	0x3e073921	0.13205387
100	0xbddbd2a9	-0.107335396
101	0x3d08f155	0.033433277
102	0xbbbe734a	-0.0058120834
103	0x3daeb572	0.08530702
104	0xbd5cea2a	-0.053934254
105	0xbe0fa1c1	-0.14026548
106	0x3e2109c1	0.15726377
107	0xbd090450	-0.03345138
108	0x3e1c769c	0.15279621
109	0x3de6bf4a	0.11266954
110	0xbcaaea43	-0.020863658
111	0xbdb0102e	-0.08596836
112	0x3e4aef88	0.19817936
113	0x3d431ca0	0.04763472
114	0xbd82297d	-0.063555695
115	0x3d768c75	0.060192544
116	0xbd58aa58	-0.052896827
117	0x3e0844c5	0.13307483
118	0x3e12bbcb	0.1432945
119	0x3e5c9173	0.2153986
120	0x3d1e51c5	0.0386522
121	0x3e380368	0.1797005
122	0x3ceee955	0.029163996
123	0x3bbd3d2c	0.0057751145
124	0x3bb2d3d0	0.005457379
125	0x3e09ff33	0.13476257
126	0x3ea7b8f3	0.32758293
127	0x3deb258b	0.1148177
128	0xbd9ded8c	-0.07711324
129	0x3da10380	0.07861996
130	0xbdfd5012	-0.12368788
131	0xbdf3f666	-0.11912231
132	0x3db5ecc8	0.08883053
133	0xbd80585a	-0.06266852
134	0x3bc1a960	0.0059100837
135	0xbddc99ee	-0.10771547
136	0xbcbca760	-0.02302903
137	0xbdd6a01c	-0.10479757
138	0xbd59b214	-0.053148344
139	0x3dbf7406	0.093483016
140	0x3dd5d316	0.10440652
141	0x3cce2460	0.02516383
142	0x3d91345e	0.070900664
143	0xbda14f4e	-0.07876454
144	0x3de49946	0.11162047
145	0x3c437480	0.011929631
146	0xbded6014	-0.11590591
147	0x3d457d84	0.048215404
148	0x3da27f02	0.07934381
149	0x3de3ebd6	0.111289665
150	0x3dbac316	0.09119241
151	0x3dacfaa4	0.084462434
152	0xbd040ad0	-0.032236874
153	0x3d524ee0	0.051344752
154	0x3d3a119c	0.04542695
155	0xbd05be50	-0.0326522
156	0x3dc8d9a2	0.09807135
157	0x3db76be2	0.08956124
158	0xbd931c6c	-0.071831554
159	0xbd7b6ed8	-0.061385006
160	0x3d20a7c8	0.03922251
161	0xbdae2b50	-0.08504355
162	0xbdb977da	-0.09056063
163	0x3bbbbf40	0.005729586
164	0xbdd2b7e6	-0.10288982
165	0x3de68a56	0.11256854
166	0xbdf4e40c	-0.11957559
167	0xbc48a010	-0.012245193
168	0xbdb7120c	-0.08938989
169	0x3dc7f56c	0.097636074
170	0xbde5fb14	-0.1122953
171	0xbdef5468	-0.11686021
172	0xbcdce910	-0.026966602
173	0xbdc705a4	-0.09717873
174	0xbdbcdbba	-0.09221597
175	0xbd1dbbf8	-0.03850934
176	0xbd250450	-0.040287316
177	0xbcd1f1e8	-0.025628045
178	0x3caa5c88	0.020796075
179	0x3ce10990	0.02747038
180	0x3c2f3a30	0.010695025
181	0xbda88e8c	-0.08230314
182	0x3dc1fcb2	0.09472026
183	0x3dc8bee0	0.098020315
184	0xbcffcfe0	-0.031227052
185	0x3c89b0d0	0.016807944
186	0xbdd71a1c	-0.10503027
187	0x3c13f530	0.009030625
188	0xbdc4aec0	-0.096036434
189	0x3d894392	0.06702341
190	0xbdb805aa	-0.08985455
191	0x3dd33e18	0.10314578
192	0x3ca21974	0.019787528
193	0xbe059951	-0.13046767
194	0x3e0d7dd8	0.13817537
195	0xbe936c85	-0.2879373
196	0xbdf2957c	-0.11844918
197	0x3dda5a23	0.106617235
198	0x3db68c49	0.08913476
199	0x3c6bf6db	0.014402117
200	0xbe47c889	-0.19510092
201	0x3d252871	0.04032177
202	0xbdc90168	-0.09814721
203	0xbd4e31f9	-0.050340626
204	0xbdb39e55	-0.08770434
205	0x3d974541	0.07386256
206	0xbd8f585c	-0.06999275
207	0xbd79e3c3	-0.061008226
208	0xbd1d3338	-0.038378924
209	0xbe221532	-0.15828398
210	0x3c54fb82	0.012999417
211	0x3e2807f8	0.1640929
212	0x3e04e939	0.12979592
213	0x3dca7300	0.09885216
214	0x3d758daf	0.059949573
215	0xbd43d2ae	-0.04780834
216	0x3e1de730	0.15420222
217	0x3dfbc91f	0.1229422
218	0xbc312d94	-0.010814089
219	0xbd81aee1	-0.06332184
220	0xbdb005a2	-0.085948244
221	0xbe586d9b	-0.21135561
222	0xbd75333c	-0.059863314
223	0xbb2de142	-0.002653197
224	0xbd841cf9	-0.064508386
225	0x3d7c9ece	0.061674885
226	0x3cb50e33	0.022101497
227	0xbd0f7b19	-0.035029504
228	0x3ded68a5	0.11592225
229	0xbd729ba4	-0.05923046
230	0xbeaf9c2b	-0.34298834
231	0x3c847165	0.016167352
232	0x3c98b1a5	0.018639395
233	0x3dc2817e	0.09497355
234	0x3d30a122	0.04312242
235	0xbc6d1331	-0.014469908
236	0xbe2e3241	-0.17011358
237	0x3cdbf9aa	0.026852448
238	0x3e013496	0.12617716
239	0x3d1e582c	0.038658306
240	0x3d86ea7a	0.065876916
241	0xbe5315a2	-0.20613721
242	0x3d8d266e	0.068920955
243	0xbd322465	-0.04349174
244	0x3c36391c	0.011122014
245	0xbbc9a24c	-0.0061533805
246	0xbd2bef2c	-0.04197614
247	0x3cf20ffa	0.029548634
248	0xbdb0c1d5	-0.086307205
249	0xbe1bccd9	-0.15214862
250	0x3d473217	0.048631754
251	0xbd68ce5c	-0.056837425
252	0xbc38814c	-0.0112612955
253	0xbc12182e	-0.008916898
254	0xbd73dbb8	-0.059535712
255	0xbda67e53	-0.08129563

res_block1.linear1.bias f4 [64]
0	0xbd28372e	-0.04106825
1	0xbd22c10a	-0.039734878
2	0xbd923cd6	-0.0714051
3	0xbdf06686	-0.11738305
4	0x3d6e9292	0.05824525
5	0x3e1c5a7e	0.15268895
6	0x3e145b38	0.14487922
7	0xbd995c5e	-0.07488321
8	0x3d099168	0.033585936
9	0xbc99c0e0	-0.018768728
10	0xbd80bd93	-0.062861584
11	0xbd1372cf	-0.035998162
12	0xbbca26f6	-0.0061691953
13	0xbbdbfb60	-0.006713316
14	0xbd994f50	-0.07485831
15	0xbe08370b	-0.13302247
16	0xbd992625	-0.074779786
17	0x3d8969d1	0.06709636
18	0xbd9689bd	-0.0735049
19	0xbc0f9dfd	-0.008765695
20	0xbcc7d876	-0.024395209
21	0x3df24da1	0.11831213
22	0x3dbc87a3	0.09205558
23	0x3db52fcb	0.088470064
24	0x3d043bf1	0.032283727
25	0xbda89de0	-0.08233237
26	0xbdbb4937	-0.09144824
27	0x3dafe539	0.085886426
28	0xba2e42ad	-0.00066475087
29	0xbdef7638	-0.1169247
30	0xbe054c48	-0.1301738
31	0xbc22ca67	-0.009935952
32	0x3d8ea44b	0.0696493
33	0xbd906df7	-0.07052224
34	0x3d98249c	0.07428858
35	0x3b91c1ad	0.004448137
36	0x3c85d1c7	0.016335381
37	0x3ddd4bf5	0.10805503
38	0x3dc4ab6d	0.096030094
39	0xbd5bd90d	-0.053673793
40	0xbd71d761	-0.059043292
41	0xbb96e44b	-0.0046048514
42	0x3d95dd53	0.07317605
43	0x3d7d5cdb	0.061856132
44	0xbc2ba779	-0.01047694
45	0x3dcd63c5	0.10028795
46	0xbd8b03ff	-0.067878716
47	0x3d8af5c0	0.06785154
48	0xbd75c958	-0.06000647
49	0x3da0920b	0.078403555
50	0xbd0e95cb	-0.034810822
51	0x3dc1e381	0.09467221
52	0xbd68b41c	-0.05681239
53	0xbd8d597e	-0.06901835
54	0xbd51c466	-0.05121269
55	0x3d71ae96	0.05900439
56	0x3cc1313a	0.023583043
57	0xbd88789f	-0.06663632
58	0xbe26f15c	-0.16303009
59	0xba8aadd6	-0.0010580372
60	0xbd6c701a	-0.057724096
61	0xbe173f21	-0.14770176
62	0x3d097417	0.033557978
63	0xbd733ca1	-0.059383992

res_block1.linear2.weight f4 [64, 64]
0	0x3dc77dca	0.09740789
1	0x3d086179	0.033296082
2	0xbde622ea	-0.11237128
3	0xbd87f974	-0.06639376
4	0xbbfec8f9	-0.0077754227
5	0x3c294b62	0.010332914
6	0x3e4a4653	0.19753389
7	0xbdd8a562	-0.10578419
8	0x3e3999e7	0.18125115
9	0xbd00db20	-0.031458974
10	0x3d5933e2	0.053027995
11	0x3db72b86	0.08943848
12	0xbd4513e1	-0.04811466
13	0x3de80b22	0.113302484
14	0xbe1e021a	-0.15430489
15	0xbd5ecc09	-0.0543938
16	0xbdb8db2e	-0.0902618
17	0xb9bda3b8	-0.0003617087
18	0xbd7f7679	-0.062368844
19	0x3de90abe	0.11379002
20	0x3dbef148	0.093233645
21	0x3e18d327	0.14924298
22	0xbe3429fe	-0.17594144
23	0xbd997638	-0.074932516
24	0x3e0fd376	0.1404551
25	0xbde2bc97	-0.11071127
26	0x3d75b1a8	0.05998388
27	0xbdd9630c	-0.10614595
28	0x3dfa6f6f	0.122282855
29	0xba70a3d6	-0.0009179687
30	0xbca229d9	-0.019795345
31	0xbe5e3015	-0.2169803
32	0xbaec1a9a	-0.0018013299
33	0x3e4f1148	0.20221436
34	0x3ca6557c	0.020304434
35	0x3e04d2c0	0.1297102
36	0x3e643bb0	0.22288394
37	0xbe1a3390	-0.15058732
38	0x3dd6c9ef	0.104877345
39	0xbd0d4b96	-0.034495912
40	0x3c7ff3fa	0.015622133
41	0x3db5e5fb	0.08881756
42	0x3e38634f	0.18006633
43	0x3bfa926c	0.0076468494
44	0xbd337688	-0.043814212
45	0x3e0b2bff	0.13591002
46	0x3b4e29ce	0.0031458023
47	0xbd1911f7	-0.03737065
48	0xbba46ad1	-0.0050176163
49	0x3df26d77	0.11837285
50	0xbe4d2913	-0.200352
51	0x3ca27ccb	0.019834897
52	0x3dd399fe	0.10332106
53	0x3dfa268c	0.122143835
54	0xbd576332	-0.052584834
55	0xbd8330f6	-0.06405823
56	0xbd540cbf	-0.051769968
57	0x3a9cf65a	0.0011975274
58	0x3dddfc4a	0.10839136
59	0xbde2e055	-0.11077944
60	0x3dd1511e	0.1022055
61	0xbe149291	-0.14509036
62	0x3db6e09c	0.089295596
63	0x3dc79646	0.09745459
64	0xbc93cc70	-0.01804182
65	0xbd182254	-0.037142113
66	0x3dc8b142	0.09799434
67	0xbcd75542	-0.026285771
68	0x3dc249a1	0.094867
69	0xbe29dd5b	-0.16588347
70	0xbe842dc5	-0.2581617
71	0x3c1c0405	0.009522443
72	0x3ddf37c5	0.10899309
73	0x3dd87af6	0.10570328
74	0xbd3f7a45	-0.046747465
75	0xbd56630b	-0.05234055
76	0xbe0e8fef	-0.13922094
77	0x3d9f15a0	0.077677965
78	0xbe15ae15	-0.14617188
79	0x3def83dc	0.11695072
80	0x3d8ff5db	0.07029315
81	0xbc66f341	-0.014096082
82	0x3bd3096f	0.0064403336
83	0xbe066ede	-0.1312823
84	0x3c02b1b6	0.00797694
85	0xbd2aca52	-0.041696854
86	0xbd26847f	-0.040653702
87	0x3e33a0a9	0.17541756
88	0xbd37f32e	-0.04490965
89	0xbdc031df	-0.09384512
90	0x3da891fc	0.08230969
91	0x3e31d9a8	0.17368186
92	0xbd8e0ffd	-0.06936643
93	0xbd356057	-0.04428133
94	0xbd80dee4	-0.06292513
95	0x3e12a381	0.14320184
96	0x3d529b66	0.05141773
97	0xbe088464	-0.13331753
98	0xbda1b804	-0.07896426
99	0x3cf4383e	0.029811975
100	0xbe4ca49e	-0.19984671
101	0x3e6851a7	0.22687398
102	0xbd22ff5a	-0.039794303
103	0x3cbb9c6c	0.022901736
104	0xbd2cf7bd	-0.04222845
105	0xbd862ada	-0.06551142
106	0x3ce631b5	0.028099874
107	0xbcb18633	-0.021670436
108	0xbd2e1a94	-0.042505816
109	0xbdea5252	-0.114414826
110	0x3c37abb3	0.01121037
111	0x3db31a27	0.087452225
112	0xbd2bcce2	-0.04194344
113	0x3d9fb082	0.07797338
114	0x3d7953b8	0.060870856
115	0xbd41edda	-0.047345974
116	0x3d3762fa	0.044772126
117	0x3d37a44d	0.044834424
118	0x3d827154	0.06369272
119	0x3e24c2f9	0.16090001
120	0x3e0f9a38	0.14023674
121	0x3dd9b6d4	0.10630575
122	0xbe01fd6d	-0.1269433
123	0xbe3ca622	-0.1842275
124	0xbc529021	-0.012851746
125	0x3c2bd171	0.010486946
126	0xbdf7ff1b	-0.121092044
127	0xbcd895be	-0.02643859
128	0xbcd933ca	-0.026513953
129	0x3d3b8732	0.04578323
130	0x3b20a0c0	0.0024509877
131	0x3e184b7a	0.14872542
132	0x3db2dde7	0.08733731
133	0xbc72c1cc	-0.014816713
134	0x3dd6e963	0.10493734
135	0x3d99c2a7	0.0750783
136	0x3e3603d8	0.17774904
137	0x3db8cc86	0.09023385
138	0x3dc081de	0.0939977
139	0x3dfa83e7	0.122321896
140	0x3d51d786	0.05123093
141	0x3c3ee1c0	0.011650503
142	0x3a8a618a	0.0010557633
143	0x3da7dfdd	0.081969954
144	0xbd4fbadd	-0.050715316
145	0x3d4b2595	0.049596388
146	0x3e166fac	0.14691037
147	0xbda39a87	-0.07988458
148	0x3da2ec2c	0.079552025
149	0x3e350479	0.17677487
150	0xbe0a4d7d	-0.13506122
151	0x3dcbc006	0.09948735
152	0x3ce67ae8	0.028134778
153	0xbd996a32	-0.07490958
154	0x3c6f2a4c	0.014597487
155	0xbd435dc6	-0.04769685
156	0x3c97a97d	0.018513435
157	0x3b436b96	0.0029818765
158	0x3d1910d8	0.03736958
159	0xbe85c5f1	-0.2612758
160	0xbd47c77a	-0.04877422
161	0x3e314c34	0.17314225
162	0xbd4ead3b	-0.050458174
163	0x3e08c51f	0.13356446
164	0x3e75f3cf	0.24018787
165	0xbe7f384d	-0.24923821
166	0x3e224fb8	0.15850723
167	0x3e395f12	0.18102673
168	0xbcd8aaef	-0.026448695
169	0xbd793911	-0.06084544
170	0x3e1020ae	0.14074966
171	0xbdd835d6	-0.105571434
172	0x3db6a7fc	0.08918759
173	0x3dca39dd	0.09874318
174	0xbdeae079	-0.11468596
175	0x3c1ea72c	0.009683412
176	0x3ca4589a	0.02006178
177	0x3cccf1f8	0.025017723
178	0xbe076a85	-0.13224228
179	0x3d33cddf	0.043897506
180	0xbe0290ad	-0.12750502
181	0xba52a965	-0.0008036106
182	0xbe47d6ec	-0.1951558
183	0xbe0266e7	-0.12734567
184	0x3d8afbcd	0.067863084
185	0x3be6e31d	0.007046117
186	0x3d13d3d4	0.036090687
187	0xbb581b9d	-0.0032975443
188	0x3d3b2cbf	0.04569697
189	0xbdfb887e	-0.12281893
190	0xbd70d49b	-0.058796506
191	0x3de5553d	0.111978985
192	0xbd297157	-0.041367855
193	0xbe0efc21	-0.13963367
194	0xbdc5ce6a	-0.09658511
195	0x3d7cae46	0.061689638
196	0x3cb60ec1	0.022223832
197	0x3d1bf20a	0.038072623
198	0x3d8dd05d	0.06924508
199	0xbdb5e040	-0.08880663
200	0xbe314df0	-0.17314887
201	0xbdd55a96	-0.104176685
202	0x3ce37378	0.02776502
203	0xbdab7177	-0.08371251
204	0x3d095e55	0.033537228
205	0x3d427e94	0.047483996
206	0x3e2cf307	0.16889583
207	0x3dfafe44	0.122555286
208	0xbbc283c0	-0.005936116
209	0xbd49de5a	-0.049284317
210	0xbda4bbc1	-0.08043624
211	0x3d9968b6	0.07490675
212	0x3e1428f3	0.14468746
213	0xbe6f9f97	-0.23400722
214	0x3daf34b7	0.085549764
215	0xbbba626a	-0.0056880014
216	0xbe00d56b	-0.12581412
217	0xbe255b6b	-0.16148154
218	0x3c0301e0	0.0079960525
219	0x3b46a12a	0.0030308464
220	0xbdaa9ce5	-0.083307065
221	0x3e00b1e1	0.12567855
222	0xbddc6d5f	-0.107630484
223	0xbdc4647b	-0.09589478
224	0xbce3df7a	-0.027816523
225	0xbe1cdcc6	-0.15318593
226	0xbbf742aa	-0.007545789
227	0xbcfa3589	-0.030543106
228	0xbe0b5f95	-0.1361068
229	0xbe1849bf	-0.14871882
230	0x3d976f32	0.07394256
231	0xbe1232b4	-0.14277154
232	0xbccb1519	-0.024790334
233	0x3d0dda51	0.03463203
234	0x3c0d8701	0.0086381445
235	0x3d9593c2	0.07303573
236	0x3d252c94	0.040325716
237	0xbdfbe0bf	-0.12298726
238	0xbd0db82a	-0.03459946
239	0xbdcc8ad6	-0.09987418
240	0xbe4b264e	-0.19838831
241	0x39b6e51d	0.00034884448
242	0x3c4fbb15	0.012678881
243	0x3d9def69	0.077116795
244	0xbd848fc8	-0.064727366
245	0x3db6ee8c	0.08932218
246	0xbd1c6fb6	-0.038192473
247	0x3df3d7fb	0.119064294
248	0x3e198608	0.14992535
249	0x393f3921	0.00018236462
250	0xbe1f3550	-0.15547681
251	0xbd6ece51	-0.058302227
252	0xbd4b26ec	-0.049597666
253	0x3b9b7f48	0.0047453977
254	0x3da6c00a	0.08142097
255	0xbd0fdfec	-0.035125658

res_block1.linear2.bias f4 [64]
0	0x3d39a857	0.045326557
1	0x3d49844a	0.049198426
2	0x3d66f7a2	0.056388505
3	0xbcff62b3	-0.031174993
4	0xbd224dd1	-0.039624993
5	0xbdb014b7	-0.08597701
6	0x3d70bd6f	0.058774408
7	0xbd95cd72	-0.07314576
8	0x3d60d2d9	0.05488858
9	0xbd729bbd	-0.059230555
10	0x3aa372d9	0.001247014
11	0x3c942746	0.018085133
12	0x3d5b71b4	0.053575233
13	0xbb97fb2e	-0.0046380972
14	0xbe023401	-0.1271515
15	0x3c41b500	0.011822939
16	0x3e18d34f	0.14924358
17	0xbd683e5c	-0.056700096
18	0x3da4f77e	0.08055018
19	0x3daae354	0.08344141
20	0xbe0023a9	-0.12513603
21	0x3d5e9fdf	0.054351684
22	0xbca99b0c	-0.020703815
23	0x3d2551bf	0.040361162
24	0xbccaccf6	-0.024755936
25	0xbd160124	-0.03662218
26	0xbd5ddb06	-0.054163955
27	0xbca0571a	-0.019572783
28	0x3ddc5b34	0.10759583
29	0x3d18b0cd	0.037277985
30	0xbd079bbe	-0.03310751
31	0xbe2a9387	-0.1665784
32	0xbd319255	-0.043352444
33	0x3d616404	0.055027023
34	0x3dacbd53	0.08434548
35	0xbdf5cc19	-0.12001819
36	0xbde215bd	-0.110393025
37	0xbe35c1ee	-0.1774976
38	0x3c491a18	0.012274288
39	0xbda25ac7	-0.07927471
40	0x3c7725ea	0.015084723
41	0x3d2a38f7	0.041558232
42	0xbd86236d	-0.06549726
43	0x3c5a823a	0.0133367125
44	0xbe0377fb	-0.12838738
45	0xbb5adf0d	-0.0033397109
46	0x3bb051a5	0.0053808265
47	0xbc56aab4	-0.013102222
48	0xbdb88274	-0.09009257
49	0x3daa42d9	0.083135314
50	0x3e0bfa85	0.13669784
51	0x3bd483a7	0.0064854207
52	0xbc43e79c	-0.011957075
53	0x3cb7f870	0.022457331
54	0xbc789d27	-0.015174187
55	0xbdb9c8be	-0.09071492
56	0x3cf5abfd	0.029989237
57	0x3dba018e	0.09082328
58	0x3b5a0980	0.0033269823
59	0x3d8fe708	0.070264876
60	0x3d29cc1b	0.041454416
61	0x3de1c076	0.11023037
62	0xbd90b65e	-0.07066034
63	0x3d754de7	0.059888747

res_block2.linear1.weight f4 [64, 64]
0	0x3d8b79f3	0.06810369
1	0x3da56244	0.08075383
2	0x3da0eacb	0.07857283
3	0xbda885ff	-0.08228683
4	0x3da1f97c	0.079089135
5	0x3d160067	0.036621477
6	0x3d0d7232	0.034532733
7	0x3d76cc2d	0.06025331
8	0xbbbbf043	-0.0057354285
9	0xbdd209b2	-0.102557555
10	0xbcd8e52c	-0.026476465
11	0xbb56ecc0	-0.0032794923
12	0xbcb44b00	-0.022008419
13	0x3dac3221	0.08407999
14	0x3dbb7cf6	0.09154694
15	0xbd09215a	-0.033479072
16	0xbdeb9983	-0.115038894
17	0xbd481c76	-0.048855267
18	0xbe122901	-0.14273454
19	0xbcff9854	-0.031200565
20	0xbe008449	-0.12550463
21	0x3dadc76e	0.08485304
22	0x3cb85bd1	0.022504719
23	0x3c872474	0.016496874
24	0xbe0db9ec	-0.13840455
25	0x3dff0f8b	0.124541365
26	0xbdc1adfe	-0.094570145
27	0xbbf75cf9	-0.007548925
28	0xbdc78684	-0.09742454
29	0xbdde25f9	-0.108470865
30	0xbe3d0e41	-0.18462469
31	0x3cdd460e	0.027010944
32	0xbd57f580	-0.05272436
33	0x3e810e44	0.25206196
34	0xbe096cf0	-0.13420463
35	0x3bf5d669	0.0075023663
36	0x3bc79431	0.006090664
37	0x3def193b	0.11674734
38	0x3de86391	0.11347116
39	0x3b1d4b6b	0.0024001251
40	0xbdc7053a	-0.09717794
41	0x3c03e084	0.008049134
42	0x3d1c2b6f	0.03812736
43	0x3c54bac3	0.012983981
44	0x3d6b5845	0.057457227
45	0x3ccdfddd	0.025145466
46	0x3a8bf99f	0.0010679251
47	0x3daa4be3	0.083152555
48	0x3dd8d36b	0.105872
49	0xbd925d5c	-0.07146713
50	0xbbffd98a	-0.007807915
51	0xbe1123f0	-0.14173865
52	0x3e0ced32	0.13762358
53	0xbdaeb305	-0.08530239
54	0x3d73028a	0.059328593
55	0x3dae5967	0.08513146
56	0x3d14e261	0.036348704
57	0x3db10c63	0.08644941
58	0xbcc031bf	-0.02346122
59	0xbacb2999	-0.0015500068
60	0x3c485f6a	0.01222978
61	0xbb6d48f9	-0.0036206825
62	0x3e322812	0.17398098
63	0x3dc363b8	0.09540504
64	0xbc8f2889	-0.017475383
65	0x3d51e9f0	0.05124849
66	0xbd54705b	-0.051864963
67	0xbdf9b6a7	-0.12193041
68	0xbd3fcb4a	-0.04682473
69	0xbd24a63d	-0.0401976
70	0xbb4997ce	-0.0030760649
71	0x3e739a30	0.23789287
72	0xbe445bc8	-0.19175637
73	0x3d116c93	0.035503935
74	0x3c85fe79	0.016356694
75	0x3d4685f3	0.048467588
76	0x3de2deb9	0.11077637
77	0xbd4c1d45	-0.0498326
78	0x3c875e18	0.01652436
79	0x3e56ddef	0.20983098
80	0xbe19effd	-0.15032955
81	0xbda9607c	-0.08270356
82	0xbdbadc58	-0.091240585
83	0xbd391893	-0.04518945
84	0x3e2c49af	0.16824983
85	0x3cdef4e2	0.027216379
86	0x3e07e8b1	0.13272358
87	0xbd89f290	-0.06735718
88	0x3b8f9b4f	0.004382528
89	0x3d89f3c6	0.06735949
90	0xbd38d6a3	-0.04512657
91	0xbde3f87d	-0.1113138
92	0xbe8259f0	-0.25459242
93	0x3d8d1318	0.068884075
94	0xbd5081a1	-0.050904874
95	0xb86ab294	-5.595626e-05
96	0x3db69564	0.08915213
97	0xbd3cab4e	-0.046061806
98	0xbe63c21d	-0.22242017
99	0x3d33cc76	0.04389616
100	0xbddd57cc	-0.108077615
101	0x3e049289	0.12946524
102	0x3df8d6b0	0.121503234
103	0x3bec476a	0.0072106617
104	0xbe02cc66	-0.12773284
105	0xbd112272	-0.03543324
106	0xbd118010	-0.03552252
107	0xbde42196	-0.111392185
108	0x3ce29351	0.027658137
109	0xbd05e9fd	-0.03269385
110	0x3cfa61dd	0.030564243
111	0x3da433f3	0.08017721
112	0xbd3c8800	-0.046028137
113	0xbdfdde76	-0.12395947
114	0xbcacf092	-0.021110807
115	0xbe322abc	-0.17399114
116	0xbde01689	-0.10941798
117	0xbd455c67	-0.048183825
118	0xbddf7c4e	-0.10912381
119	0x3e0eb927	0.13937818
120	0xbe057ac6	-0.13035116
121	0x3d9fcdc0	0.078029156
122	0xbdb24f7a	-0.08706565
123	0xbe7b9c9b	-0.24571459
124	0xbe520c38	-0.20512474
125	0xbe1b82cb	-0.15186612
126	0x3c96b791	0.018398078
127	0xbcdf19c7	-0.027233971
128	0x3e23f844	0.16012675
129	0x3c99d2c4	0.018777259
130	0x3d4efe4d	0.05053549
131	0x3ceba394	0.028764524
132	0x3d6d23ac	0.057895347
133	0xbc989210	-0.018624336
134	0x3c0ba56c	0.008523326
135	0x3ced732f	0.028985588
136	0x3a7722af	0.00094274705
137	0xbdb175bf	-0.086650364
138	0x3e17ba74	0.1481722
139	0xbcba2b41	-0.022725703
140	0x3e175af1	0.14780785
141	0xbd2a6999	-0.041604612
142	0x3dc46073	0.09588709
143	0x3dbc1b59	0.09184904
144	0xbe49970d	-0.19686528
145	0x3da9ed3e	0.082972035
146	0xbd950e27	-0.0727809
147	0xbca3c650	-0.019992024
148	0xbd71efe1	-0.059066657
149	0xbc6b0acd	-0.014345837
150	0x3d8377c0	0.06419325
151	0x3e3e51ea	0.18585935
152	0xbbb928c1	-0.00565061
153	0x3e2df6aa	0.16988626
154	0x3d78a4ff	0.060704228
155	0xbbc3659f	-0.005963042
156	0x3cc1a777	0.023639424
157	0x3d2db03d	0.042404402
158	0xbde52bce	-0.11189996
159	0xbe4466d9	-0.19179858
160	0x3e474910	0.19461465
161	0x3e51399b	0.20432131
162	0xbc42e341	-0.011895002
163	0x3ddc236e	0.10748945
164	0xbdfe233f	-0.124090664
165	0xbd8c701a	-0.06857319
166	0xbd876dc7	-0.06612735
167	0x3d2115a6	0.039327286
168	0x3dd23e2e	0.10265766
169	0xbcbcd7fd	-0.02305221
170	0xbc3eb8d8	-0.01164075
171	0x3dae9b3b	0.085257016
172	0xbdd9d9b3	-0.10637226
173	0x3e801307	0.25014517
174	0xbddb2cee	-0.10701929
175	0x3d5fea5d	0.054666866
176	0x3dd8af62	0.105803266
177	0xbccb8c8d	-0.024847293
178	0x3ceb3297	0.028710647
179	0x3bdac50e	0.006676323
180	0x3cd70a0c	0.026249908
181	0xbb924391	-0.004463621
182	0x3dae0cf1	0.08498562
183	0x3d85da12	0.06535734
184	0x3e006fde	0.12542674
185	0x3dd62a8f	0.10457336
186	0xbe1afd46	-0.15135679
187	0x3d166b99	0.036723707
188	0xbd7558d8	-0.05989918
189	0x3c099394	0.008397002
190	0x3e58c04e	0.21167108
191	0x3d9481f2	0.072513476
192	0xbc852352	-0.016252194
193	0xbd8cc358	-0.06873196
194	0xbe03fda4	-0.12889725
195	0x3ce54daa	0.027991135
196	0x3b9d34ca	0.0047975527
197	0xbc949b98	-0.0181406
198	0x3c882ed7	0.016623897
199	0xbcbf69dc	-0.023365907
200	0xbd9704f8	-0.073739946
201	0xbdb68148	-0.08911377
202	0x3d3ac13f	0.04559445
203	0x3dadb2f6	0.084814
204	0x3df98174	0.12182894
205	0x3d816d7e	0.06319712
206	0xbccaa47d	-0.024736637
207	0x3dd63ace	0.10460435
208	0xbdebb737	-0.11509555
209	0x3ce991cc	0.028511904
210	0x3c9599a2	0.018261734
211	0x3da88216	0.08227937
212	0x3bea1209	0.0071432632
213	0xbdb0c3d7	-0.086311035
214	0x3ded319c	0.11581728
215	0x3dfbed69	0.12301142
216	0xbe1a46ff	-0.15066145
217	0xbd965eed	-0.073423244
218	0xbdee02d8	-0.11621636
219	0xbd8f7127	-0.07004004
220	0x3db54b00	0.08852196
221	0xbda89e81	-0.08233357
222	0xbc86d8fc	-0.016460888
223	0x3d204ed9	0.039137695
224	0xbb991469	-0.0046716225
225	0x3dcfea91	0.10152162
226	0xbcf96c75	-0.030447224
227	0x3da467c5	0.08027605
228	0x3cbdb331	0.023156734
229	0xbdeef201	-0.11667252
230	0x3dda9d3c	0.10674521
231	0x3e2f8244	0.17139536
232	0xbd56ed73	-0.052472543
233	0xbd9ad93c	-0.075609654
234	0xbd7bb1e5	-0.06144895
235	0x3e14976c	0.14510888
236	0x3dc34a2d	0.09535632
237	0x3e2cd092	0.16876438
238	0xbd2e5640	-0.042562723
239	0xbcefb627	-0.029261662
240	0xbde0a6de	-0.109693274
241	0x3d827d31	0.063715346
242	0xbe1f7477	-0.15571772
243	0x3de91690	0.113812566
244	0x3c739ed7	0.014869413
245	0xbd2acf58	-0.041701645
246	0xbdb0ec55	-0.08638827
247	0x3ddc11da	0.107455924
248	0x3dca9368	0.09891397
249	0xbd1ceb5e	-0.0383104
250	0xbdc69a9b	-0.096974574
251	0xbd76f8fd	-0.060296047
252	0x3d8a68eb	0.06758293
253	0x3d505fb7	0.05087253
254	0x3e089193	0.13336782
255	0xbc92b309	-0.017907636

res_block2.linear1.bias f4 [64]
0	0x3ba4c883	0.0050287857
1	0xbe0fef43	-0.14056115
2	0xbd7fbcb3	-0.062435817
3	0xbd8d77f4	-0.06907645
4	0xbd461a2a	-0.048364796
5	0x3d3ab828	0.04558578
6	0xbdaaf9bf	-0.083484165
7	0xbd5705d1	-0.05249578
8	0x3d6e641f	0.05820095
9	0xbd6e823c	-0.05822967
10	0xbc93c842	-0.018039826
11	0xbc086805	-0.008325581
12	0x3db49dbf	0.0881915
13	0x3d89ceaf	0.06728875
14	0xbd11d8cf	-0.035607155
15	0x3de835a1	0.11338354
16	0xbd74cedb	-0.059767585
17	0x3d9c0808	0.07618719
18	0xbd40206e	-0.046905927
19	0xbe1343d7	-0.14381348
20	0x3c0e8729	0.008699217
21	0x3dadb2d1	0.08481372
22	0xbce6a42a	-0.028154451
23	0x3cf9ed29	0.030508595
24	0xbce4a96e	-0.027912822
25	0xbe12e594	-0.1434539
26	0x3dd9040a	0.105964735
27	0xbc504914	-0.012712736
28	0x3e059db3	0.13048439
29	0x3daba28a	0.08380611
30	0xbc7f38ef	-0.015577539
31	0xbd87c603	-0.066295646
32	0x3d914bf5	0.07094566
33	0xbc6c5315	-0.014424105
34	0x3d77ea9b	0.06052647
35	0xbdcd4f50	-0.10024893
36	0x3d8a4d44	0.067530185
37	0xbcd953e8	-0.026529267
38	0xbc7682ed	-0.015045864
39	0x3dc3b234	0.09555474
40	0x3ae09eb9	0.0017137147
41	0x3c93d7e6	0.018047284
42	0x3a90cf01	0.001104802
43	0x3bb83c2e	0.0056224084
44	0xbdc2819d	-0.09497378
45	0x3e35a4df	0.17738675
46	0xbd063034	-0.032760814
47	0xbdcd307e	-0.10019015
48	0x3d3c9461	0.046039943
49	0xbb14469e	-0.00226251
50	0x3d312b34	0.043254092
51	0x3d260bcc	0.040538594
52	0x3dd9a936	0.106279776
53	0x3dc8cd6c	0.09804806
54	0xbd31a127	-0.043366577
55	0x3e2fe6ba	0.17177859
56	0x3e13e667	0.1444336
57	0xbc94b460	-0.018152416
58	0x3dcda237	0.10040706
59	0xbd328d83	-0.043591987
60	0xbdb70240	-0.08935976
61	0xbc7922ca	-0.015206048
62	0xbe0e81f6	-0.13916764
63	0xbd35c38d	-0.044375945

res_block2.linear2.weight f4 [64, 64]
0	0xbc92d486	-0.017923605
1	0x3e003079	0.12518491
2	0x3c802b66	0.015645694
3	0xbcedbeca	-0.02902164
4	0x3c9a678e	0.018848207
5	0xbd1fb6e9	-0.038992796
6	0xbdba025b	-0.090824805
7	0xbdbfe4ec	-0.09369835
8	0x3ca16ad3	0.019704258
9	0xbc3dcfa0	-0.011585146
10	0xbd6d1cf0	-0.057888925
11	0xbd6aca83	-0.057322036
12	0x3ddae9e8	0.10689145
13	0xbdbaaaba	-0.09114595
14	0x3d800554	0.06251016
15	0x3e645281	0.22297098
16	0xbd942b52	-0.07234825
17	0x3c8bcbef	0.017065017
18	0x3e233222	0.15937093
19	0xbd906da1	-0.0705216
20	0x3d134f2e	0.035964184
21	0xbd77e7e1	-0.06052387
22	0xbdd52526	-0.10407476
23	0xbdce6557	-0.10077923
24	0xbd52a258	-0.051424354
25	0xbca724fb	-0.020403376
26	0x3daef07f	0.08541965
27	0xbe012440	-0.12611485
28	0x3d41058e	0.047124438
29	0x3d01f1ee	0.031724863
30	0xbdb2aece	-0.087247476
31	0x3b2875d9	0.0025705008
32	0xbb4a183c	-0.0030837199
33	0x3e3ef1f7	0.1864699
34	0xbd4fd26e	-0.05073779
35	0x3d7293a8	0.059222847
36	0x3d574119	0.052552316
37	0xbda60f9e	-0.081084475
38	0x3b9e3387	0.00482792
39	0xbd50f3da	-0.051013805
40	0x3e25f32a	0.16206041
41	0x3e2e23ef	0.17005895
42	0xbccf30ec	-0.025291882
43	0x3d66316c	0.056199476
44	0x3d84da5b	0.064869605
45	0x3d8b5e88	0.0680514
46	0x3dc63884	0.09678748
47	0xbcd9077a	-0.026492823
48	0x3e25c693	0.16189031
49	0xbca2651b	-0.019823601
50	0x3d9266b3	0.071484946
51	0x3d79fafb	0.06103037
52	0xbcc57bbf	-0.024106858
53	0x3e26b114	0.16278487
54	0x38cdf58d	9.820899e-05
55	0x3daf665e	0.08564447
56	0x3b85747b	0.0040727234
57	0x3d56b2a6	0.052416466
58	0x3d513376	0.051074468
59	0x3ced2737	0.028949363
60	0xbc98e743	-0.018664962
61	0x3dde644b	0.10858973
62	0xbdcfc518	-0.101450145
63	0xbda47def	-0.080318324
64	0x3dc9cb18	0.0985319
65	0xbdf8c83e	-0.12147568
66	0x3c2230c9	0.009899327
67	0x3e179f5c	0.14806885
68	0xbcc09576	-0.023508769
69	0x3dddf3b5	0.10837499
70	0x3bd6a7a5	0.0065507465
71	0x3e35556d	0.17708369
72	0x3cc05cc6	0.023481738
73	0xbd426fab	-0.047469776
74	0x3d5acad6	0.053416096
75	0x3e3e0981	0.18558313
76	0x3d9c5c75	0.07634822
77	0xbdaff440	-0.08591509
78	0x3c1825a8	0.009286322
79	0xbe01c95d	-0.1267447
80	0xba631ca6	-0.0008663632
81	0xbc8a36dc	-0.016871862
82	0x3d7cbea8	0.06170526
83	0x3db4a638	0.08820766
84	0x3d40585e	0.046959274
85	0x3d8fb643	0.070171855
86	0x3cb2d8b5	0.02183185
87	0x3e155d31	0.14586331
88	0xbd0f13bd	-0.034930933
89	0x3dd29eff	0.10284232
90	0xbd596e96	-0.05308398
91	0x3dd65e8f	0.10467254
92	0x3d60a59c	0.054845437
93	0x3dd54154	0.10412851
94	0xbd425124	-0.047440663
95	0xbdd75aa2	-0.10515334
96	0x3c239d10	0.009986177
97	0xbdb9bd8e	-0.09069358
98	0x3e228c55	0.15873845
99	0xbcb636e8	-0.022242978
100	0x3d89a4ad	0.067208625
101	0xbdc81820	-0.097702265
102	0xbd3590db	-0.044327598
103	0xbd0a34b4	-0.033741668
104	0xbdd01571	-0.101603396
105	0xbd846286	-0.06464104
106	0x3dd9461e	0.10609077
107	0x3e0ec0d6	0.13940749
108	0x3da92c9a	0.0826046
109	0xbe3db4ec	-0.18526047
110	0x3df77080	0.120820045
111	0xbc6afdba	-0.01434272
112	0x3d5c0bbd	0.053722132
113	0xbd7eb0ce	-0.062180333
114	0x3c91b2d1	0.017785462
115	0xbde98977	-0.114031725
116	0x3c29f02f	0.010372206
117	0xbe0b2879	-0.13589658
118	0x3d95e146	0.07318358
119	0x3dcbf05f	0.099579565
120	0xbd807af1	-0.06273449
121	0xbe2b558d	-0.16731854
122	0x3c6a5bea	0.014304141
123	0xbd6b8835	-0.057502944
124	0x3d2fc4af	0.04291218
125	0x3d2d4d4e	0.04231005
126	0xbd54d778	-0.0519633
127	0x3db1fd4e	0.08690892
128	0x3cdd028a	0.02697875
129	0xbd5d0077	-0.05395552
130	0xba8655d8	-0.0010248972
131	0x3c13cc64	0.0090208985
132	0x3d1f6faf	0.03892487
133	0xbb9a46b6	-0.0047081364
134	0xbd145a18	-0.036218733
135	0x3b76a16e	0.003763284
136	0x3d7a40ea	0.061097063
137	0xbdd4bba3	-0.10387351
138	0x3cbfb279	0.023400532
139	0x3dcf19d3	0.101123475
140	0xbc740165	-0.014892911
141	0x3e1487f4	0.14504987
142	0xbd71ad4c	-0.05900316
143	0x3eb21c07	0.34787008
144	0x3cdd8022	0.027038638
145	0xbd89b455	-0.06723849
146	0x3dc3dc4e	0.09563504
147	0xbc4cb650	-0.012494639
148	0x3dbf1017	0.09329241
149	0x3db45a6d	0.0880631
150	0x3c87b17d	0.016564125
151	0xbdda9c90	-0.10674393
152	0xbdd01192	-0.10159601
153	0xbd2f4fb5	-0.042800624
154	0xbc3d91ed	-0.011570436
155	0xbda45f73	-0.08026018
156	0x3e53bdfa	0.20677939
157	0x3d28fe86	0.041258357
158	0x3cfc591d	0.030804211
159	0x3dba1931	0.09086836
160	0x3ddecfcb	0.10879477
161	0x3c7c1694	0.015386242
162	0xbd84333e	-0.06455086
163	0xbc943738	-0.018092737
164	0x3c0a4578	0.008439414
165	0xbb4b4f1d	-0.0031022497
166	0x3de75f0e	0.11297427
167	0x3dbb2ac2	0.09139015
168	0x3d0a3dc9	0.03375033
169	0x3e189960	0.14902258
170	0x3cf3e5e1	0.0297727
171	0x3e06f4e9	0.13179363
172	0x3dd6ffa0	0.10497975
173	0x3e238cb0	0.15971637
174	0xbc000750	-0.007814243
175	0x3da8eb0e	0.08247958
176	0x3dc5c7d9	0.096572585
177	0x3d869f88	0.06573397
178	0x3e817412	0.25283867
179	0xbccc6a8c	-0.02495315
180	0x3d3fe051	0.046844784
181	0x3bec399b	0.0072090155
182	0xbd91ba31	-0.07115591
183	0x3e14c1ef	0.14527105
184	0xbdbd0a5c	-0.092304915
185	0xbd6050f0	-0.054764688
186	0xbd9cf73a	-0.07664342
187	0x3dd9609b	0.10614129
188	0xbdae9539	-0.08524556
189	0x3d72286d	0.059120584
190	0x3d2cb921	0.04216874
191	0xbd9cc964	-0.076556
192	0xbc9ecbc2	-0.019384269
193	0xbe5f1bd1	-0.21787955
194	0xbdcd902a	-0.10037263
195	0xbd8e6f17	-0.069547825
196	0xbd8a2e79	-0.06747145
197	0xbcf4e4cc	-0.029894255
198	0x3be4cea4	0.0069826413
199	0xbd59f4b3	-0.05321188
200	0xbe07ba2f	-0.13254617
201	0xbc742bca	-0.014903018
202	0x3dde79d4	0.108630806
203	0x3e0a9fd3	0.1353753
204	0x3d105193	0.035234045
205	0x3c898773	0.01678822
206	0xbdd0674b	-0.101759516
207	0x3d87da5c	0.066334456
208	0x3c9f9382	0.019479517
209	0xbc6af1b0	-0.014339849
210	0xbdc4724e	-0.095921144
211	0xbe044538	-0.1291703
212	0x3d130dfc	0.03590201
213	0xbe2005ae	-0.15627167
214	0xbd5eba8c	-0.054377124
215	0xbdf6a843	-0.12043812
216	0xbe00266f	-0.12514661
217	0x3d9ae476	0.07563107
218	0xbd5e6b57	-0.054301586
219	0xbdee5a8a	-0.11638363
220	0xbb10402e	-0.002201091
221	0x3de096e3	0.10966279
222	0x3caa587e	0.02079415
223	0xbcacbd6d	-0.021086419
224	0x3d1b5e30	0.03793162
225	0xbe398f9d	-0.1812119
226	0x3d0b6785	0.03403427
227	0xba36dd00	-0.00069756806
228	0x3d8203a9	0.06348354
229	0x3d396f29	0.045272026
230	0x3d03d4dc	0.03218542
231	0xbb6ae9a6	-0.0035844832
232	0xbd4ee5d7	-0.05051216
233	0xbd4e6543	-0.05038954
234	0xbca12045	-0.019668708
235	0xbd30a59a	-0.04312668
236	0xbcb18693	-0.021670615
237	0xbc3884f9	-0.011262172
238	0x3dad2f20	0.08456254
239	0xbe01f6e4	-0.12691838
240	0xbd74fffd	-0.059814442
241	0xbd46a651	-0.048498455
242	0x3b32dcd1	0.0027292261
243	0x3cdcca60	0.026951969
244	0x3cb3a5d9	0.021929668
245	0x3d199689	0.037497077
246	0x3d14b9ce	0.03631001
247	0xbe2c4c95	-0.16826089
248	0xbd69e62c	-0.057104275
249	0xbdd8b920	-0.10582185
250	0xbdde0a29	-0.10841782
251	0xbdc9f00e	-0.0986024
252	0x3d347d6f	0.044064935
253	0xbd820ddc	-0.063503
254	0x3d9d7c94	0.07689777
255	0x3da80504	0.08204082

res_block2.linear2.bias f4 [64]
0	0x3e0bb6ce	0.13643953
1	0xbc8744fa	-0.016512383
2	0xbdc4ac0b	-0.09603127
3	0x3ca9c9e3	0.02072615
4	0x3d60b480	0.05485964
5	0x3c8d38aa	0.017238934
6	0x3d55b3cb	0.052173417
7	0x3bd1d0f2	0.006403082
8	0x3d5a4149	0.053284917
9	0xbd30c23d	-0.04315399
10	0x3de36ced	0.1110476
11	0x3df25044	0.11831716
12	0xbdb54f17	-0.08852976
13	0x3d8dc8bf	0.06923055
14	0x3cbe4b51	0.023229273
15	0xbdb1d535	-0.08683244
16	0x3db09a11	0.08623136
17	0xbd7ed272	-0.062212415
18	0xbe182c8b	-0.14860742
19	0xbe04127a	-0.12897673
20	0xbda17287	-0.078831725
21	0x3c110089	0.008850225
22	0xbd18ad00	-0.03727436
23	0xbe43235f	-0.19056462
24	0xbd51e102	-0.051239975
25	0xbc989cce	-0.018629458
26	0xbbc6a21c	-0.0060618054
27	0xbd4db83a	-0.05022452
28	0x3c4cac43	0.012492242
29	0x3c736675	0.014855971
30	0x3c82322d	0.015893066
31	0xbdbc7836	-0.09202616
32	0x3d2501ad	0.0402848
33	0x3c2c01f2	0.010498511
34	0x3de680c0	0.11255026
35	0x3dcd5352	0.10025658
36	0x3d33eba6	0.043925904
37	0xbe023538	-0.12715614
38	0xbe2c5ad0	-0.16831517
39	0x3c18022b	0.009277861
40	0xbca679de	-0.020321783
41	0xbdf402ca	-0.119145945
42	0xbd55e4b8	-0.052220076
43	0x3d49e3af	0.0492894
44	0x3d923458	0.0713889
45	0xbdb2cbe7	-0.087302975
46	0xbd913a2d	-0.07091174
47	0x3d4227fe	0.04740142
48	0x3cd65a9f	0.026166258
49	0x3d830327	0.06397086
50	0xbc8b86b8	-0.017032012
51	0x3d8a02a1	0.06738783
52	0x3cc82283	0.024430519
53	0x3d748e78	0.05970618
54	0x3e01a14e	0.12659189
55	0xbda50a31	-0.080585845
56	0xbd4384d6	-0.047734104
57	0x3d9bdc4f	0.0761038
58	0xbcfeba98	-0.031094834
59	0xbe14838e	-0.14503309
60	0x3da532fb	0.080663644
61	0x3df015c1	0.11722899
62	0xbc634fc1	-0.013873995
63	0xbd3f1f97	-0.046660986

output_layer.weight f4 [2, 64]
0	0xbc124bd3	-0.008929211
1	0x3d27b227	0.040941384
2	0xbde3e68b	-0.11127957
3	0x3daf31bd	0.08554409
4	0x3d723b73	0.059138726
5	0x3dd4b6e2	0.10386445
6	0xbd9a1962	-0.07524373
7	0xbe81ce69	-0.2535279
8	0xbd8014e7	-0.06253987
9	0xbe23d9a4	-0.16000992
10	0x3de6d84b	0.11271723
11	0x3e24b4d2	0.16084602
12	0x3cd39b1e	0.025830802
13	0x3de9d000	0.11416626
14	0x3d9c849a	0.07642479
15	0xbbf47ef2	-0.007461422
16	0xbe14b9f3	-0.14524059
17	0xbd9f64c4	-0.077828914
18	0x3d80060e	0.06251155
19	0xbdcbd62d	-0.0995296
20	0x3b7a38d7	0.0038180852
21	0xbe257e62	-0.16161492
22	0x3d7463e1	0.059665564
23	0xbdf7238e	-0.120673284
24	0x3d6b43d5	0.057437737
25	0x3d56a092	0.052399226
26	0xbd94db1f	-0.072683565
27	0x3e3b30a0	0.18280268
28	0xbdbef723	-0.09324481
29	0xbd279068	-0.0409092
30	0xbd422fc6	-0.04740884
31	0xbcbe36c7	-0.02321948
32	0xbdb991c1	-0.090610035
33	0xbd48ba6b	-0.049005907
34	0x3ced3283	0.02895475
35	0x3e0ff26c	0.1405732
36	0xbd7f2d5e	-0.062299125
37	0x3dfdc5be	0.12391232
38	0x3c810d57	0.015753431
39	0x3dbc52fa	0.09195514
40	0x3e069942	0.131444
41	0x3e1ee67a	0.15517607
42	0xbdfad212	-0.12247099
43	0x3d95e651	0.0731932
44	0xbd8d1779	-0.06889243
45	0xbdf9ca4f	-0.121967904
46	0xbdfbb2da	-0.122899726
47	0xbe5db680	-0.2165165
48	0xbdb5ea3a	-0.08882566
49	0xbdd2f2b0	-0.10300195
50	0xbe49abd6	-0.19694456
51	0xbd25107c	-0.040298924
52	0x3e12a2f1	0.1431997
53	0xbdbfa5e3	-0.09357812
54	0xbd758009	-0.059936557
55	0x3d665861	0.05623663
56	0x3d468a16	0.048471533
57	0x3e242baf	0.16032289
58	0x3b9c7169	0.0047742617
59	0x3d5414f9	0.051777814
60	0x3c8e08b5	0.017338136
61	0xbdbdc679	-0.09266371
62	0x3e5ba2eb	0.21448867
63	0x3df6554d	0.120279886
64	0x3db93101	0.0904255
65	0xbd4a3865	-0.04937019
66	0xbbd8021a	-0.0065920474
67	0x3c353b9d	0.011061576
68	0xbd58977b	-0.052878838
69	0xbdf1b7d0	-0.118026376
70	0xbda978b6	-0.08274977
71	0x3e4f1a2b	0.20224826
72	0x3dbc4483	0.09192755
73	0x3e0a9de1	0.13536789
74	0xbc7bef49	-0.015376874
75	0xbda90986	-0.082537696
76	0xbe4319a4	-0.1905275
77	0xbc3c8bf4	-0.011507977
78	0xbdbd0282	-0.09228994
79	0x3d51f73e	0.05126118
80	0x3c8540cb	0.016266247
81	0xbe1b5aa5	-0.15171297
82	0x3ce1416c	0.027497016
83	0x3b610d30	0.0034340136
84	0xbda3be60	-0.079952955
85	0x3e99ceae	0.30040497
86	0xbc1b98e6	-0.009496903
87	0x3c237d12	0.00997855
88	0xbc8c02bc	-0.017091148
89	0xbe0e61a1	-0.1390443
90	0x3db861d8	0.09003037
91	0xbdef898b	-0.11696156
92	0x3d83e966	0.064410016
93	0x3da2687b	0.07930084
94	0x3dc15c84	0.09441474
95	0x3d3e36d4	0.046439007
96	0xbd632324	-0.055453435
97	0x3cc3ded0	0.023909956
98	0x3dc7044d	0.09717617
99	0x3c2aa563	0.010415408
100	0x3c43d76b	0.011953215
101	0x3d81ca58	0.06337422
102	0x3d2e2541	0.042515997
103	0x3daba4eb	0.08381065
104	0xbdbacc62	-0.09121014
105	0xbe4a4400	-0.19752502
106	0x3d5caadd	0.053873885
107	0xbe55d98e	-0.20883772
108	0xbc31610a	-0.010826359
109	0x3e11885f	0.14212178
110	0x3e1ab216	0.15106997
111	0x3d540079	0.051758263
112	0xbd8c0032	-0.06835975
113	0x3de99317	0.11405008
114	0xbd13364d	-0.035940457
115	0x3d2a64a0	0.04159987
116	0xbde458ba	-0.11149736
117	0x3e0353b8	0.12824905
118	0x3d5566a5	0.052099843
119	0xbbd273a6	-0.006422478
120	0xbe26e0fe	-0.16296765
121	0xbdbc18f4	-0.09184447
122	0x3e404c98	0.18779218
123	0x3d3a5983	0.04549552
124	0x3ccbb626	0.024867129
125	0x3d90a98d	0.07063589
126	0xbcf713b8	-0.03016077
127	0xbda51b01	-0.08061791

output_layer.bias f4 [2]
0	0xbccbded2	-0.024886522
1	0x3b289d80	0.0025728643
