imitation/irl/models/gail_cartpole.pth (torch, 129110 bytes, 36 tensors)

trunk.0.weight f4 [64, 4]
0.49038827 -0.05042039 0.2905822 0.42512503 -0.21965559 -0.0641372 1.1423281 -0.22438487
0.16313808 -0.1037771 0.81640285 0.3964559 -0.41221678 0.23115261 0.9639346 0.18348393
0.40580204 -0.48977578 -0.72800136 -0.07974024 -0.63699687 0.19363248 0.82138467 0.39162105
-0.5051217 0.014861674 -0.8336932 0.20248425 0.15437806 -0.24528332 0.94461775 0.5374762
-0.5049677 -0.21627025 -0.56533295 -0.17368783 -0.17675331 -0.057235148 -0.39197782 -0.51466537
-0.20231564 0.010919364 1.1487728 0.36308303 0.7536505 -0.45221323 -0.75454205 -0.39647827
-0.4505403 -0.15231274 0.82478595 0.27823514 -0.27524155 -0.31402412 -0.7171275 -0.07394791
-0.44331503 -0.38382488 0.107426934 0.42731458 -0.3391242 -0.015200844 -0.89554113 -0.12703802
0.14411393 0.45037305 0.17118151 0.35983306 -0.018716346 0.20065175 -1.0219318 0.07975804
-0.74545157 0.11728453 0.6247875 0.0303522 -0.10503423 0.18478015 -0.5786408 -0.19994281
-0.07129652 0.33166742 -0.67931783 -0.30475995 0.11748455 0.3956204 0.07380881 0.21112221
0.41246808 -0.45590004 -0.17244944 0.07750527 0.08749068 -0.294661 -0.23791105 -0.33835846
-0.13416104 -0.36592284 -1.1572559 -0.4159933 -0.35329095 -0.22531243 -0.8001872 -0.3405396
-0.6072988 -0.11219282 0.24436256 0.47916695 0.18528706 -0.3063148 0.9396599 0.09619379
-0.4318388 -0.46293578 0.58508545 0.427952 -0.25371897 -0.32004118 0.7386638 0.41196817
0.34541953 0.2365866 -0.46552795 0.18534884 -0.039745085 0.094539635 0.8351734 0.41471502
-0.000332093 -0.043810364 -0.5672929 -0.31433767 -0.21452409 0.39625633 0.82064587 0.45854697
0.24751005 0.18420129 -0.66825324 -0.16918166 -0.3181942 -0.28014186 -0.22380674 0.32631123
-0.3281807 0.050558005 -0.78730243 -0.19372666 0.03877023 0.43504253 0.746705 0.52512413
-0.21242245 0.3885012 0.89272666 0.3770862 -0.55739355 0.36364767 0.3131022 0.5315104
0.5733904 -0.06020323 -0.81202817 -0.5379161 -0.6201732 -0.33487245 -0.12987769 0.15119468
-0.06258636 0.23582095 0.009797533 0.45793712 0.22102691 0.108339705 0.9515522 0.2589943
-0.44821975 -0.11698204 0.83914393 0.5444162 -0.5008375 0.18617249 -0.75673044 0.18544231
0.49899068 0.08743765 -0.6065994 -0.38867384 0.37605238 -0.44859695 0.032919228 0.19326821
0.060144823 -0.12778139 0.95795393 0.2785514 0.24286473 0.45651475 0.71667075 0.33399734
-0.3490952 -0.21837528 -0.070305556 0.42915365 -0.09566261 -0.37889332 -0.07303302 0.07013426
0.018521138 0.1644969 0.6520219 0.30738604 -0.49854583 -0.065941386 -0.24056487 0.24309632
0.48175555 -0.125913 0.32928488 -0.39578113 -0.3139999 0.111012995 -0.3011402 -0.30266795
0.27174798 -0.24675608 -0.7070061 -0.20184155 0.34667227 -0.1061659 0.96760553 0.3425279
-0.37070423 0.15011916 -0.9620931 -0.3394071 -0.018334335 0.12633981 -0.33389732 0.0019195906
-0.057486914 0.079565175 1.1193243 0.37073693 -0.050713833 -0.1632798 -1.2159008 -0.120542124
0.2678124 0.31099746 0.02949161 -0.06515554 -0.3878943 -0.38910767 -0.1501659 -0.52094716
00000000: 2c14 fb3e 9c85 4ebd 31c7 943e fda9 d93e
00000010: 65ed 60be 5d5a 83bd cf37 923f 26c5 65be
00000020: ab0d 273e 1789 d4bd c7ff 503f 45fc ca3e
00000030: 140e d3be 45b3 6c3e 6bc4 763f 36e3 3b3e
00000040: 49c5 cf3e e4c3 fabe 4c5e 3abf da4e a3bd
00000050: 3a12 23bf 9847 463e 4446 523f 8e82 c83e
00000060: a84f 01bf 617e 733c eb6c 55bf 0858 4f3e
00000070: 4815 1e3e 8d2b 7bbe 78d2 713f 0a98 093f
00000080: 9045 01bf f375 5dbe a9b9 10bf 39db 31be
00000090: d2fe 34be 676f 6abd 51b1 c8be 1cc1 03bf
000000a0: d52b 4fbe 22e7 323c fd0a 933f 05e6 b93e
000000b0: 3def 403f 7e88 e7be ab29 41bf 33ff cabe
000000c0: 38ad e6be dff7 1bbe 2c25 533f d674 8e3e
000000d0: 76ec 8cbe c5c7 a0be ab95 37bf 0072 97bd
000000e0: 30fa e2be b284 c4be a702 dc3d fac8 da3e
000000f0: b0a1 adbe f60c 79bc 2f42 65bf 4116 02be
00000100: 9a92 133e 4c97 e63e 354a 2f3e 0a3c b83e
00000110: 0653 99bc a777 4d3e a9ce 82bf 2f58 a33d
00000120: ead5 3ebf df32 f03d 13f2 1f3f 2da5 f83c
00000130: 301c d7bd 0237 3d3e ce21 14bf cfbd 4cbe
00000140: e903 92bd 50d0 a93e c6e7 2dbf 7f09 9cbe
00000150: bd9b f03d c28e ca3e 1329 973d 6c30 583e
00000160: 042f d33e bb6b e9be 9696 30be 15bb 9e3d
00000170: 502e b33d cedd 96be f49e 73be 523d adbe
00000180: 8361 09be 3d5a bbbe f620 94bf 13fd d4be
00000190: 8de2 b4be 4db8 66be 11d9 4cbf 355b aebe
000001a0: ef77 1bbf 59c5 e5bd 2e3a 7a3e 5f55 f53e
000001b0: e4bb 3d3e 4bd5 9cbe 8d8d 703f 4001 c53d
000001c0: fa19 ddbe eb05 edbe 29c8 153f 861c db3e
000001d0: 74e7 81be 70dc a3be 1219 3d3f 7eed d23e
000001e0: d4da b03e c243 723e ae59 eebe 16cc 3d3e
000001f0: becb 22bd ff9d c13d edcd 553f 8755 d43e
00000200: c51c aeb9 7f72 33bd 1c3a 11bf def0 a0be
00000210: 34ac 5bbe 1ce2 ca3e d915 523f abc6 ea3e
00000220: 4673 7d3e 439f 3c3e a512 2bbf f53d 2dbe
00000230: 5aea a2be c16e 8fbe 982d 65be 4412 a73e
00000240: 4d07 a8be e915 4f3d a78c 49bf 4860 46be
00000250: 88cd 1e3d e5bd de3e 0f28 3f3f 896e 063f
00000260: 4585 59be a1e9 c63e bc89 643f 7111 c13e
00000270: 58b1 0ebf 0730 ba3e ee4e a03e 1111 083f
00000280: b7c9 123f a997 76bd 14e1 4fbf dfb4 09bf
00000290: acc3 1ebf 6774 abbe a8fe 04be c7d2 1a3e
000002a0: 472d 80bd 0c7b 713e d585 203c bc76 ea3e
000002b0: e154 623e 35e1 dd3d ed98 733f e79a 843e
000002c0: 0f7d e5be 4894 efbd 23d2 563f dc5e 0b3f
000002d0: e336 00bf 00a4 3e3e 16b9 41bf 97e4 3d3e
000002e0: b57b ff3e 8312 b33d 194a 1bbf 4200 c7be
000002f0: f089 c03e 80ae e5be 50d6 063d 1ae8 453e
00000300: 6b5a 763d 20d9 02be 783c 753f 4a9e 8e3e
00000310: 88b1 783e 4dbc e93e bc77 373f b301 ab3e
00000320: 9bbc b2be c59d 5fbe 5cfc 8fbd 07ba db3e
00000330: c2ea c3bd 4efe c1be 5692 95bd 8da2 8f3d
00000340: a4b9 973c e071 283e e8ea 263f b461 9d3e
00000350: 6641 ffbe 470c 87bd a356 76be 3eee 783e
00000360: aaa8 f63e 56ef 00be 0798 a83e d3a3 cabe
00000370: 98c4 a0be c85a e33d 0c2f 9abe 4bf7 9abe
00000380: 8d22 8b3e a0ad 7cbe 5afe 34bf 8daf 4ebe
00000390: 077f b13e 826d d9bd ffb4 773f d15f af3e
000003a0: f2cc bdbe d6b8 193e bc4b 76bf c4c6 adbe
000003b0: e331 96bc 395f 013e 97f4 aabe c69a fb3a
000003c0: 6677 6bbd 11f3 a23d 0546 8f3f 3bd1 bd3e
000003d0: 4fb9 4fbd d232 27be a3a2 9bbf cade f6bd
000003e0: b51e 893e 0f3b 9f3e 6498 f13c 4570 85bd
000003f0: 159a c6be 1f39 c7be 17c5 19be cb5c 05bf

trunk.0.bias f4 [64]
-0.4557877 0.08350463 0.22422464 0.52070373 -0.19416542 0.4575089 -0.32464793 0.07988559
0.5743099 -0.38279504 -0.29365718 0.35397083 0.43095323 -0.4300182 0.38489932 -0.31491485
0.41869912 -0.23006165 -0.42823872 0.23132816 0.4457662 0.25434577 -0.10922072 -0.49365082
0.25884402 -0.46598443 -0.30691355 -0.34425244 0.6068757 0.46721214 -0.47514465 0.21464622
0.3236164 -0.43703732 0.49640697 0.36330542 0.26406503 0.32688808 0.28319374 0.57693464
-0.5373572 0.667737 -0.49327388 0.19335125 -0.10361264 -0.38826787 0.40771738 0.40266556
-0.16591306 -0.3144354 -0.6388506 0.40522358 -0.31286353 0.2421319 -0.44772622 -0.30027765
0.3445453 0.3938317 0.19040562 0.43124375 -0.25860178 -0.18984243 0.32527724 -0.5044961
00000000: 015d e9be 7a04 ab3d 259b 653e d74c 053f
00000010: 4dd3 46be 9b3e ea3e 4138 a6be 0e9b a33d
00000020: f905 133f b6fd c3be 3c5a 96be aa3b b53e
00000030: e7a5 dc3e 582b dcbe 8611 c53e 853c a1be
00000040: bb5f d63e 4895 6bbe 1b42 dbbe 4ae1 6c3e
00000050: 783b e43e 9c39 823e 1daf dfbd cdbf fcbe
00000060: 3487 843e 8395 eebe c623 9dbe db41 b0be
00000070: 355c 1b3f 6e36 ef3e 2946 f3be 38cc 5b3e
00000080: 0cb1 a53e 5bc3 dfbe 0e29 fe3e 2b03 ba3e
00000090: 8833 873e e05d a73e c5fe 903e fdb1 133f
000000a0: 3e90 09bf d0f0 2a3f 658e fcbe dffd 453e
000000b0: dd32 d4bd 0ccb c6be 55c0 d03e 2e2a ce3e
000000c0: 1de5 29be adfd a0be b78b 23bf 7779 cf3e
000000d0: a62f a0be 6df1 773e 5f3c e5be febd 99be
000000e0: 3e68 b03e 4fa4 c93e b1f9 423e fbcb dc3e
000000f0: 7467 84be 0e66 42be bd8a a63e a826 01bf

trunk.2.weight f4 [64, 64]
-0.074533604 -0.28755677 -0.3117949 -0.23495731 0.08206205 -0.091043495 0.33568552 -0.08077356
0.09615003 0.1444843 -0.12009903 -0.16566548 -0.17141214 0.23625228 -0.18847384 0.38001242
-0.15179385 0.29762763 0.08031393 -0.0391246 -0.14021528 -0.1810487 -0.07214676 0.1597699
0.1402489 0.38222086 0.18129322 -0.12320606 -0.21323581 -0.26406297 0.16542454 -0.2790934
-0.09022129 0.06713008 0.03001819 -0.007090581 0.13031404 -0.23928031 -0.18259583 -0.027517997
0.18389483 -0.025485974 -0.024089606 -0.38880825 -0.02798546 0.23956059 -0.08517183 -0.1378533
-0.08163996 -0.06693803 0.16412716 -0.13286112 0.052451875 0.0490908 0.021135395 0.25008985
-0.08085202 -0.32834566 0.135422 -0.06833681 -0.058314484 0.5590659 -0.094394 0.15924534
-0.116389245 -0.31771216 0.013814242 -0.047509838 0.19054382 0.0033214171 0.10369725 -0.11182657
0.16908276 -0.034281507 -0.40484574 0.28046384 0.061938975 -0.023926513 0.04123564 0.059196696
-0.06085903 0.24150819 -0.282806 0.13369264 0.26795587 0.04044196 -0.09188839 0.0804163
0.51243305 0.14907494 -0.2539726 -0.32830855 0.100582115 -0.09902023 0.037625253 -0.15615311
0.21569483 -0.37046218 0.12187065 0.1756733 0.30339998 -0.0913389 -0.1425432 0.07156073
0.024191367 0.05712148 -0.16496876 -0.23641041 -0.029122168 0.09651311 0.2518865 -0.06417763
-0.21592146 -0.39263394 -0.19010715 -0.03018735 -0.2731301 0.008580055 -0.15884522 0.00045228165
0.33143336 -0.020667294 0.27817932 0.08262338 -0.43236914 0.19932698 0.008870769 -0.071890086
0.03571028 0.24658078 0.23908514 0.18329625 -0.034270335 0.2588945 -0.3981918 0.15041943
0.11426317 -0.3095324 0.14043605 0.058211632 0.29073933 -0.1616688 0.016765352 -0.5295471
0.04506473 -0.43627006 -0.092337854 -0.09917909 -0.10769082 0.106378034 0.033503797 -0.0041626445
-0.07780982 -0.37040666 -0.022122547 0.051287547 0.055395264 0.27502933 -0.010428612 0.23633087
-0.044334665 -0.124507405 0.17873748 -0.03040194 -0.14060703 0.28075796 0.251419 0.096831016
-0.18370922 0.013411643 0.035057504 0.55484587 0.08018942 -0.40299177 0.097282596 0.15764031
0.0873978 0.08207441 -0.06281308 0.026058506 -0.044871368 -0.059416465 0.10499283 -0.35214654
-0.08070028 0.5195811 -0.04014763 0.11680521 0.04755588 -0.53281194 0.030379185 -0.22984895
0.23321378 -0.32730773 -0.22423224 -0.16089599 0.2356623 -0.47327664 0.089315936 -0.09954397
-0.2908284 0.033202093 0.05973146 0.06414682 -0.5106452 0.11034996 -0.12722689 0.07946636
-0.06853327 0.4452369 -0.11447016 0.023482025 0.05007366 0.024653038 0.25092453 0.20933181
-0.08946032 0.03134071 -0.018904472 0.11627806 -0.3259888 -0.20812686 0.13800056 -0.27138126
-0.08844512 0.10813285 0.036796983 -0.20046988 -0.15776204 -0.2653121 -0.3219336 -0.2741338
0.32274473 -0.35063186 0.01997228 -0.040436286 -0.23730963 0.05646765 0.10473766 0.14740181
0.078992374 0.19763656 -0.052072283 -0.12098545 0.10174479 -0.22872457 0.30791068 -0.0046255244
-0.04368694 -0.09015765 -0.11643473 -0.016947115 -0.05921377 0.3034885 0.09180086 0.17920613
00000000: 13a5 98bd a43a 93be 95a3 9fbe a698 70be
00000010: 2610 a83d 0375 babd f9de ab3e 9c6c a5bd
00000020: 4fea c43d b1f3 133e 7bf6 f5bd 36a4 29be
00000030: aa86 2fbe 1eec 713e 49ff 40be fd90 c23e
00000040: d96f 1bbe a662 983e a17b a43d 1e41 20bd
00000050: 9894 0fbe d564 39be aec1 93bd b89a 233e
00000060: 689d 0f3e 74b2 c33e eea4 393e 7553 fcbd
00000070: 7d5a 5abe 4333 87be 0d65 293e 55e5 8ebe
00000080: f1c5 b8bd 7f7b 893d b5e8 f53c 1b58 e8bb
00000090: 0b71 053e e605 75be 67fa 3abe 6c6d e1bc
000000a0: ed4e 3c3e f6c7 d0bc 9157 c5bc e011 c7be
000000b0: c341 e5bc 5f4f 753e 926e aebd 6a29 0dbe
000000c0: da32 a7bd ce16 89bd f310 283e bf0c 08be
000000d0: c7d7 563d 6f13 493d 2324 ad3c c70b 803e
000000e0: be95 a5bd ec1c a8be 11ac 0a3e 2bf4 8bbd
000000f0: 2bdb 6ebd f11e 0f3f a451 c1bd 3611 233e
00000100: 7c5d eebd 2bab a2be 2155 623c ad99 42bd
00000110: eb1d 433e 22ac 593b 395f d43d 5405 e5bd
00000120: 0824 2d3e c46a 0cbd f147 cfbe f598 8f3e
00000130: b9b3 7d3d 8901 c4bc b4e6 283d 3c78 723d
00000140: 5147 79bd ec4d 773e f3cb 90be b9e6 083e
00000150: 8331 893e 78a6 253d fb2f bcbd 4db1 a43d
00000160: d02e 033f 1aa7 183e b208 82be 0f18 a8be
00000170: fffd cd3d 1ecb cabd f01c 1a3d 9ae6 1fbe
00000180: 1bdf 5c3e 38ad bdbe 5297 f93d b4e3 333e
00000190: 3e57 9b3e e40f bbbd d8f6 11be 6f8e 923d
000001a0: f92c c63c 37f8 693d 92ed 28be 9215 72be
000001b0: 9d91 eebc aaa8 c53d 44f7 803e 906f 83bd
000001c0: 841a 5dbe 5107 c9be 73ab 42be 764b f7bc
000001d0: b5d7 8bbe 5c93 0c3c 52a8 22be 3720 ed39
000001e0: a2b1 a93e 754e a9bc 856d 8e3e 7236 a93d
000001f0: 7d5f ddbe 5f1c 4c3e b456 113c 1c3b 93bd
00000200: f144 123d ac7f 7c3e bcd2 743e 03b2 3b3e
00000210: 0d5f 0cbd d28d 843e ccdf cbbe 8d07 1a3e
00000220: cf02 ea3d 087b 9ebe 78ce 0f3e 526f 6e3d
00000230: c9db 943e 828c 25be 7e57 893c 6690 07bf
00000240: cb95 383d ca5e dfbe a11b bdbd 681e cbbd
00000250: 018d dcbd badc d93d 473b 093d cb66 88bb
00000260: c15a 9fbd f1a5 bdbe 583a b5bc e412 523d
00000270: 25e6 623d a5d0 8c3e c5dc 2abc b800 723e
00000280: 4498 35bd bdfd febd f506 373e 7d0d f9bc
00000290: 4afb 0fbe 82bf 8f3e feb9 803e 574f c63d
000002a0: 451e 3cbe 82bc 5b3c 7598 0f3d 610a 0e3f
000002b0: 5a3a a43d f054 cebe 193c c73d 766c 213e
000002c0: 9efd b23d a116 a83d 25a4 80bd a678 d53c
000002d0: 0acb 37bd ae5e 73bd 7b06 d73d 8d4c b4be
000002e0: 3046 a5bd 4403 053f d771 24bd 9237 ef3d
000002f0: f4c9 423d 5d66 08bf c5dd f83c 865d 6bbe
00000300: 98cf 6e3e e194 a7be 239d 65be ebc1 24be
00000310: 7551 713e 5151 f2be 46eb b63d b5dd cbbd
00000320: 76e7 94be ebfe 073d faa8 743d 685f 833d
00000330: a5b9 02bf 29ff e13d c447 02be 42bf a23d
00000340: 2c5b 8cbd 17f6 e33e 556f eabd 605d c03c
00000350: 0a1a 4d3d 2bf5 c93c 2e79 803e 145b 563e
00000360: f936 b7bd 1e5f 003d 8ddd 9abc 3123 ee3d
00000370: 01e8 a6be 351f 55be 0550 0d3e 7cf2 8abe
00000380: b722 b5bd c174 dd3d 6fb8 163d fa47 4dbe
00000390: 5f8c 21be fdd6 87be 7bd4 a4be 445b 8cbe
000003a0: cc3e a53e 0586 b3be e89c a33c 85a0 25bd
000003b0: 4c01 73be 9f4a 673d b380 d63d 80f0 163e
000003c0: c1c6 a13d 3d61 4a3e bf49 55bd 38c7 f7bd
000003d0: 935f d03d c636 6abe 78a6 9d3e b691 97bb
000003e0: 14f1 32bd 93a4 b8bd 5575 eebd add4 8abc
000003f0: 238a 72bd d862 9b3e 1702 bc3d d081 373e

trunk.2.bias f4 [64]
-0.11120469 0.040786523 0.18140319 -0.019109912 0.03353072 0.020347513 -0.021358704 -0.011844357
0.10516104 0.07975348 -0.030170102 0.09430901 0.09495392 0.049078558 0.13668336 0.20501004
0.039945416 -0.16074707 0.03470161 -0.053606268 0.051059857 -0.13725908 0.003499727 0.059386708
-0.067115225 0.08186109 -0.0032621783 0.043532237 -0.04555865 0.11614679 0.16774245 0.03587908
0.12969635 -0.033152 -0.014827647 0.2264292 -0.018191531 0.15914191 0.12119544 -0.20854926
-0.008287823 -0.17672421 0.06548282 -0.062429994 0.18405123 0.21471898 0.0005651009 0.1802786
-0.03203094 0.12794577 -0.0632435 -0.20455568 0.041717093 0.08004997 -0.01856903 -0.1840196
0.04739385 0.010346435 0.037344854 0.111112736 0.17688322 -0.15619807 0.011394709 0.012503483
00000000: 49bf e3bd c50f 273d c2c1 393e 648c 9cbc
00000010: 8257 093d d4af a63c 73f8 aebc d50e 42bc
00000020: ac5e d73d cb55 a33d 4a27 f7bc 1525 c13d
00000030: 3377 c23d 9906 493d b9f6 0b3e 27ee 513e
00000040: ce9d 233d e19a 24be 4723 0e3d 3f92 5bbd
00000050: 2424 513d a58d 0cbe ad5b 653b 7a3f 733d
00000060: b573 89bd caa6 a73d 45ca 55bb dc4e 323d
00000070: b59b 3abd 5ede ed3d adc4 2b3e f1f5 123d
00000080: 1fcf 043e 64ca 07bd a9ef 72bc 0edd 673e
00000090: 6806 95bc 19f6 223e 5135 f83d f08d 55be
000000a0: a6c9 07bc 31f7 34be db1b 863d 98b6 7fbd
000000b0: ed77 3c3e 4bdf 5b3e 4823 143a f49a 383e
000000c0: e032 03bd 3704 033e cf85 81bd 0b77 51be
000000d0: 8bdf 2a3d 3df1 a33d 141e 98bc a26f 3cbe
000000e0: 0e20 423d 1884 293c ebf6 183d 138f e33d
000000f0: e020 353e 63f2 1fbe e0b0 3a3c 69db 4c3c

policy.0.weight f4 [2, 64]
-0.046644017 -0.007111855 -0.0644396 0.063242435 -0.162899 0.04847765 -0.09298325 0.054206874
-0.072606504 -0.048498683 -0.11184038 0.010754694 -0.07991585 -0.11288667 -0.113356866 0.11350188
0.024802845 -0.114700496 -0.10046395 -0.13614342 0.02865447 -0.05546967 0.025149915 0.08730126
0.024338266 -0.02946903 0.04876795 0.06452926 0.01708799 -0.034524556 -0.07147869 0.13490263
-0.0014999766 -0.14627615 -0.18948346 -0.0042466205 0.094794326 -0.039492134 0.08125526 0.06258366
-0.08710757 0.098567076 -0.08757282 0.017188713 0.053949527 0.059865393 0.13344139 -0.060356896
-0.106287286 -0.0068927375 0.13669878 0.03325909 0.05240292 0.06493853 0.116770096 -0.07311222
-0.13364463 0.14092737 -0.04281123 0.040727288 -0.042810343 -0.12273625 -0.031013396 0.06527904
0.0033672638 0.06402171 0.08517907 0.0029084107 0.041169643 0.11631442 -0.026573177 -0.040617377
0.07285076 0.08194883 0.056191612 -0.03170808 0.097555704 -0.020678611 0.15294765 0.00511835
-0.04676848 0.14927396 0.14994484 -0.005926117 0.10500785 0.13814034 -0.06528816 0.10294077
-0.07507695 -0.057602815 -0.122883484 0.009391801 -0.044237636 0.07758259 0.050164945 -0.21980122
-0.0567982 0.052369706 0.198266 -0.057174683 -0.047892816 -0.03182025 0.1418842 -0.16516086
0.008168888 -0.038687192 -0.022697749 -0.08861265 0.14454105 -0.05749026 -0.05275822 0.00013969839
0.18771157 -0.06962077 -0.056876224 0.020299185 0.1127768 -0.14633746 -0.1327221 -0.136132
0.055815194 -0.23418951 0.062231004 0.09355966 0.025072234 -0.070854165 0.011907401 -0.06783122
00000000: cc0d 3fbd 900a e9bb e9f8 83bd 4085 813d
00000010: ffce 26be 8090 463d 016e bebd 0708 5e3d
00000020: b8b2 94bd 8ea6 46bd 920c e5bd 7534 303c
00000030: ecaa a3bd 2031 e7bd a527 e8bd ac73 e83d
00000040: 562f cb3c 18e8 eabd 0bc0 cdbd 2e69 0bbe
00000050: c7bc ea3c 2a34 63bd 3207 ce3c 01cb b23d
00000060: 0b61 c73c 0969 f1bc e7c0 473d eb27 843d
00000070: 1dfc 8b3c 9f69 0dbd 6b63 92bd ea23 0a3e
00000080: dd9a c4ba 6ac9 15be f407 42be 3c27 8bbb
00000090: 8723 c23d 81c2 21bd 2869 a63d dd2b 803d
000000a0: 7465 b2bd 89dd c93d 6159 b3bd 58cf 8c3c
000000b0: 2efa 5c3d 6a35 753d dca4 083e cb38 77bd
000000c0: 26ad d9bd 79dc e1bb c4fa 0b3e af3a 083d
000000d0: 72a4 563d 7efe 843d 2925 ef3d dcbb 95bd
000000e0: 23da 08be 444f 103e d45a 2fbd a8d1 263d
000000f0: e659 2fbd 255d fbbd ce0f febc 04b1 853d
00000100: 50ad 5c3b d01d 833d 5d72 ae3d 099b 3e3b
00000110: 80a1 283d 4136 ee3d feaf d9bc 685e 26bd
00000120: c732 953d cad4 a73d 2d29 663d 55e0 01bd
00000130: 49cb c73d 3166 a9bc 4f9e 1c3e d5b7 a73b
00000140: 4e90 3fbd 46db 183e 248b 193e df2f c2bb
00000150: 5b0e d73d a974 0d3e cdb5 85bd 9cd2 d23d
00000160: f2c1 99bd eef0 6bbd 56aa fbbd 12e0 193c
00000170: 8632 35bd 9fe3 9e3d c279 4d3d 9213 61be
00000180: 3ba5 68bd 9e81 563d 3e06 4b3e 0030 6abd
00000190: 422b 44bd f355 02bd 174a 113e ee1f 29be
000001a0: cdd6 053c 7676 1ebd a1f0 b9bc 8d7a b5bd
000001b0: 9202 143e e87a 6bbd 0119 58bd 007c 1239
000001c0: 7637 403e 5695 8ebd 0bf7 68bd 7a4a a63c
000001d0: 86f7 e63d 7dd9 15be 4de8 07be 3066 0bbe
000001e0: 799e 643d 60cf 6fbe f0e5 7e3d 359c bf3d
000001f0: 4964 cd3c fd1b 91bd 4217 433c 18eb 8abd

policy.0.bias f4 [2]
-0.047485318 -0.009815916
00000000: f77f 42bd f0d2 20bc

value.weight f4 [1, 64]
-0.46690544 0.6818923 0.53220266 -0.47792974 -0.5733455 -0.61647534 0.53126705 0.5161241
0.506974 0.4985785 -0.6422551 0.5209702 0.55399716 0.52714205 0.51892066 0.6758543
-0.61669946 -0.554177 -0.6655419 -0.6734535 0.47861713 -0.4413025 -0.47474274 -0.61340237
-0.46696702 0.4491636 0.4735963 0.50407165 -0.56213695 0.4978544 0.55878156 0.6186622
0.47675404 -0.61047375 -0.62537766 0.5168293 -0.43108684 0.5241395 0.5158112 -0.5821266
-0.5159972 -0.5636175 -0.61120063 -0.58917236 0.45714498 0.4912626 -0.51003325 0.6667242
-0.65933836 0.5278449 0.668543 -0.4993696 0.51056445 0.67518795 -0.45377257 -0.4418228
-0.64977115 -0.45463324 0.48548123 0.4964046 0.47112596 -0.5991124 -0.5129338 0.57854205
00000000: 3b0e efbe 7e90 2e3f 6f3e 083f 35b3 f4be
00000010: c5c6 12bf 54d1 1dbf 1e01 083f b620 043f
00000020: 0cc9 013f ae45 ff3e d56a 24bf 4e5e 053f
00000030: c2d2 0d3f c8f2 063f fcd7 043f ca04 2d3f
00000040: 04e0 1dbf 8bde 0dbf f460 2abf 7367 2cbf
00000050: 4e0d f53e 67f2 e1be 7b11 f3be f007 1dbf
00000060: 4d16 efbe c5f8 e53e 377b f23e d70a 013f
00000070: 35e8 0fbf c6e6 fe3e 4f0c 0f3f a560 1e3f
00000080: 1b19 f43e 0248 1cbf c018 20bf ed4e 043f
00000090: 6ab7 dcbe 022e 063f 340c 043f 4006 15bf
000000a0: 6418 04bf 3d49 10bf a577 1cbf 00d4 16bf
000000b0: e80e ea3e c686 fb3e 8a91 02bf 70ae 2a3f
000000c0: 66ca 28bf d820 073f a225 2b3f 5fad ffbe
000000d0: 5ab4 023f 1ed9 2c3f e154 e8be 9936 e2be
000000e0: 6757 26bf b0c5 e8be ff90 f83e be28 fe3e
000000f0: 6c37 f13e 6e5f 19bf a14f 03bf 551b 143f

model.0.weight f4 [64, 6]
-0.31468132 -0.0120905535 -0.37725735 -0.030777019 -0.3916688 -0.07907222 0.19594036 0.39707854
-0.3801456 0.37003428 0.30755404 0.20825134 -0.27315027 0.22031206 0.29985526 -0.17069216
-0.09421738 0.23304088 0.055825856 -0.16230549 -0.10569587 0.29870912 -0.2746803 -0.009711619
-0.062942736 -0.05841829 -0.2638973 0.24920839 -0.2675331 -0.31783628 -0.28242877 -0.4013936
0.23690973 0.39169613 0.15719962 -0.2821551 0.20163977 0.10997601 -0.15168427 0.35247734
-0.084793776 -0.16297936 0.24087769 -0.012829016 0.051309254 -0.1370293 -0.1754778 -0.12037212
0.2174058 0.055747047 -0.39904648 -0.27598056 -0.28263912 0.098589115 0.40243533 -0.13521543
0.066023804 -0.31340805 -0.22940345 -0.06051144 -0.37331253 -0.38551763 -0.34527108 -0.23492149
0.0021732668 0.12101855 0.3659358 -0.30604783 0.17421018 -0.12960039 0.4000202 -0.025367403
-0.30915308 0.19643244 -0.3594832 0.293802 0.347321 0.18186584 0.17258908 -0.37662783
0.1901596 -0.03968797 -0.39153302 -0.341809 -0.19209363 0.1315698 0.26337472 -0.3853666
0.17728898 -0.11435011 0.1302765 -0.27482253 -0.14355248 -0.26992157 -0.3215138 -0.34437454
-0.3854527 0.02088858 0.22600205 -0.16444202 -0.19153161 -0.02313275 0.2160315 -0.39156726
0.19317195 0.114647515 -0.1878643 0.18974245 -0.028062873 -0.25844046 -0.2420165 -0.3521265
0.33798528 -0.20479573 0.37102702 0.05360794 -0.067623295 0.013711863 0.09206576 -0.20775494
0.13639319 0.3065332 -0.06999202 0.35800028 -0.39998975 -0.33873892 0.061215334 0.04859755
0.058656286 -0.30986193 -0.038297802 -0.1652809 0.07492695 -0.2704936 -0.027354933 -0.32279357
0.107086144 -0.16040374 0.3456536 0.33530408 0.19052112 0.10352403 0.3183953 -0.030925527
0.08020143 0.3707463 0.0946268 -0.23439689 -0.12615912 0.06788318 0.10898881 -0.33754045
-0.39020133 0.05917457 -0.29207513 0.09497993 0.20108984 -0.09049382 0.0782558 0.33776695
0.31270766 0.11695303 -0.29224014 0.15612537 0.27461764 -0.028390188 -0.12392299 -0.063684344
-0.032041647 -0.2878271 -0.2878727 -0.073119864 -0.2936997 0.38927683 0.32277602 -0.100887604
-0.0806148 -0.10556507 0.2683908 0.040837917 -0.18575418 0.08253164 0.10612016 0.24298607
-0.24065533 -0.32728103 -0.072607666 -0.2704843 0.3084973 0.2506002 -0.038296632 0.12892504
-0.33967298 -0.078451455 0.09018174 -0.23316512 -0.25971815 -0.11215803 -0.25367054 -0.16335319
0.3412223 -0.21064615 -0.3199267 -0.17661129 -0.26632172 0.39795607 -0.15244456 -0.39434335
0.2655019 0.3711938 -0.3447163 -0.38643104 0.2902431 0.19866501 -0.21080394 0.39741543
0.237942 0.3692557 0.08702706 -0.30445123 -0.25021946 0.3885998 -0.2842149 -0.35039216
0.18595862 -0.2649626 -0.23359902 -0.31393468 0.18797405 -0.010102379 0.15459187 -0.03932714
0.01911727 -0.38759783 -0.13276796 -0.20928055 -0.11264582 0.0047301617 -0.24286564 -0.10978302
0.1556537 -0.053980194 0.13038082 0.16684143 -0.1441791 0.052101534 0.11875068 0.26953372
0.069690384 -0.20697245 -0.29992995 -0.15411814 0.15892047 -0.3396658 -0.043195903 -0.080790944
00000000: e91d a1be 7517 46bc e027 c1be 1620 fcbc
00000010: d088 c8be 9ef0 a1bd 97a4 483e e14d cb3e
00000020: 72a2 c2be 2275 bd3e b977 9d3e d73f 553e
00000030: 5ada 8bbe 7c99 613e a186 993e edc9 2ebe
00000040: 0bf5 c0bd 45a2 6e3e a7a9 643d 6933 26be
00000050: 1477 d8bd 67f0 983e e5a2 8cbe 7b1d 1fbc
00000060: 1fe8 80bd 0448 6fbd 8c1d 87be 7c30 7f3e
00000070: 19fa 88be 70bb a2be 819a 90be 7683 cdbe
00000080: 7798 723e 658c c83e f0f8 203e a276 90be
00000090: a87a 4e3e 1a3b e13d 1f53 1bbe e977 b43e
000000a0: 5ca8 adbd 10e4 26be a4a8 763e cb30 52bc
000000b0: a729 523d 6951 0cbe 74b0 33be a885 f6bd
000000c0: a09f 5e3e 0457 643d d24f ccbe 534d 8dbe
000000d0: 13b6 90be 17e9 c93d 010c ce3e ea75 0abe
000000e0: 7d37 873d 0577 a0be bde8 6abe d8da 77bd
000000f0: d222 bfbe 9162 c5be 5fc7 b0be 428f 70be
00000100: 5e6d 0e3b 93d8 f73d f05b bb3e 4db2 9cbe
00000110: 2764 323e f7b5 04be 73cf cc3e 4dcf cfbc
00000120: 5049 9ebe 9625 493e 2f0e b8be 376d 963e
00000130: 0fd4 b13e 0a3b 3a3e 31bb 303e 5dd5 c0be
00000140: 33b9 423e da8f 22bd 0477 c8be 9701 afbe
00000150: 31b4 44be 3cba 063e 0dd9 863e c54e c5be
00000160: 3e8b 353e 6430 eabd 3467 053e 8ab5 8cbe
00000170: 6cff 12be 2933 8abe 759d a4be dc51 b0be
00000180: 0e5a c5be 871e ab3c 156d 673e 7d63 28be
00000190: dd20 44be e580 bdbc 5d37 5d3e 817b c8be
000001a0: dece 453e 51cc ea3d 805f 40be d84b 423e
000001b0: 1ce4 e5bc 4f52 84be 2cd3 77be ed49 b4be
000001c0: 680c ad3e f9b5 51be 41f7 bd3e 0094 5b3d
000001d0: 157e 8abd b9a7 603c f98c bc3d b6bd 54be
000001e0: a8aa 0b3e ebf1 9c3e fa57 8fbd d04b b73e
000001f0: 75cb ccbe 306f adbe eebc 7a3d 390e 473d
00000200: 9341 703d 39a6 9ebe 28de 1cbd 653f 29be
00000210: 4d73 993d 237e 8abe 7417 e0bc 3345 a5be
00000220: fb4f db3d e140 24be 82f9 b03e faac ab3e
00000230: f817 433e 6804 d43d b504 a33e 8857 fdbc
00000240: a640 a43d 76d2 bd3e b2cb c13d bd05 70be
00000250: db2f 01be 5606 8b3d 8635 df3d 1ad2 acbe
00000260: 78c8 c7be 0961 723d df8a 95be d684 c23d
00000270: 7fea 4d3e d354 b9bd 9444 a03d caef ac3e
00000280: 381b a03e 1285 ef3d 80a0 95be 54df 1f3e
00000290: af9a 8c3e 8a92 e8bc 56cb fdbd f06c 82bd
000002a0: 1a3e 03bd 135e 93be 0d64 93be debf 95bd
000002b0: cf5f 96be 4b4f c73e e642 a53e 299e cebd
000002c0: 5f19 a5bd 8032 d8bd 856a 893e a945 273d
000002d0: 5836 3ebe 5906 a93d 8755 d93d 57d1 783e
000002e0: 5a6e 76be 6191 a7be 54b3 94bd eb7c 8abe
000002f0: 5cf3 9d3e ab4e 803e eedc 1cbd ed04 043e
00000300: 9ee9 adbe 28ab a0bd 34b1 b83d d6c2 6ebe
00000310: c7f9 84be 1cb3 e5bd 1be1 81be 0f46 27be
00000320: b0b4 ae3e a0b3 57be 6fcd a3be 97d9 34be
00000330: 525b 88be e6c0 cb3e 6d1a 1cbe 5fe7 c9be
00000340: ddef 873e 1d0d be3e a87e b0be 4ada c5be
00000350: be9a 943e d76e 4b3e fddc 57be 097a cb3e
00000360: 11a7 733e 150f bd3e 3e3b b23d 08e1 9bbe
00000370: c41c 80be 8ef6 c63e 9e84 91be 9a66 b3be
00000380: f06b 3e3e 2ea9 87be 9534 6fbe 0cbc a0be
00000390: 457c 403e 7384 25bc 554d 1e3e 7f15 21bd
000003a0: d29b 9c3c 3973 c6be 53f4 07be a44d 56be
000003b0: dab2 e6bd 79ff 9a3b c5b1 78be ecd5 e0bd
000003c0: af63 1f3e 561a 5dbd 8d82 053e 7bd8 2a3e
000003d0: b0a3 13be 6b68 553d 8e33 f33d 5300 8a3e
000003e0: d5b9 8e3d 96f0 53be 6b90 99be 25d1 1dbe
000003f0: 0cbc 223e ade8 adbe 30ee 30bd b975 a5bd

model.0.bias f4 [64]
-0.37418428 -0.29778862 -0.29877475 -0.37817162 -0.22673927 0.088322185 -0.28108668 -0.038668983
0.2528469 0.11676882 -0.33614975 -0.34668386 0.20987545 0.26747403 -0.21650304 -0.0928195
0.3781796 0.40160483 0.021529531 0.3281902 0.40014315 0.04434135 0.117665015 -0.2605746
-0.15166174 -0.00026942493 -0.1304029 0.25953323 0.18617542 0.20825963 -0.3164604 -0.26346868
0.13935871 0.22985761 0.14925052 0.10221013 -0.20313959 -0.06190432 -0.32703847 -0.14685966
0.13869855 0.28174874 0.34580737 -0.037132513 -0.18519562 -0.21631157 0.030548086 -0.20446631
0.22387905 -0.12750861 0.21810234 -0.2593259 -0.07706377 0.29705083 0.21285391 0.1068723
-0.19341359 -0.23992777 -0.00998994 -0.29106182 0.075691484 0.117747076 0.3405973 0.04699828
00000000: 1595 bfbe c077 98be 01f9 98be b69f c1be
00000010: 572e 68be 43e2 b43d 98ea 8fbe 5e63 1ebd
00000020: 2675 813e 7e24 ef3d d21b acbe 8c80 b1be
00000030: 97e9 563e 5bf2 883e f9b2 5dbe 2618 bebd
00000040: c2a0 c13e 269f cd3e b35e b03c 8c08 a83e
00000050: 90df cc3e 479f 353d 5bfa f03d 096a 85be
00000060: 374d 1bbe 9a41 8db9 5688 05be 8ae1 843e
00000070: c5a4 3e3e 0342 553e 1907 a2be 5ee5 86be
00000080: 0db4 0e3e cb5f 6b3e 21d5 183e 8b53 d13d
00000090: d303 50be 628f 7dbd 9671 a7be 6162 16be
000000a0: fe06 0e3e 5f41 903e aa0d b13e 4318 18bd
000000b0: eca3 3dbe c880 5dbe fb3f fa3c 9e5f 51be
000000c0: 8d40 653e 9e91 02be 3856 5f3e 5dc6 84be
000000d0: 9cd3 9dbd 0c17 983e 60f6 593e dddf da3d
000000e0: 360e 46be a0af 75be d8ac 23bc 0e06 95be
000000f0: 2304 9b3d 6125 f13d c562 ae3e 4581 403d

model.2.weight f4 [64, 64]
-0.12703009 -0.085808165 0.07325456 0.10979029 -0.014703846 0.059887793 0.07858772 -0.020973101
-0.08423786 0.12292807 -0.10941569 0.07264622 -0.04613022 -0.04766851 -0.06534019 -0.08437065
-0.04870373 0.04775831 0.06615408 -0.05957089 0.09096165 0.10425562 -0.042967524 -0.12411889
-0.096073516 -0.017613333 -0.044925377 0.112301566 0.028110297 -0.08767689 -0.08925935 -0.034148492
0.033998467 0.119708896 0.11797355 0.022908203 0.038341492 -0.037395574 -0.10618704 -0.033755977
0.0015443659 0.0322627 0.00090633397 -0.102321364 0.095625654 -0.06271778 0.010325058 -0.0003951097
-0.054376397 -0.0764987 -0.06146348 -0.03884749 -0.0021576989 0.07277297 0.027315628 -0.067137495
0.10961707 -0.041885108 -0.048284236 0.10564718 -0.05136843 -0.08921399 0.060375333 -0.00046597837
0.0672129 0.10049116 0.056531083 -0.012574494 0.08827594 -0.017668175 0.06650367 0.07994214
-0.032346997 -0.029451534 -0.09512147 0.023184733 -0.075572275 0.066221364 -0.096872725 0.035593364
0.11843648 -0.08986055 0.09239346 0.031531084 0.08769902 0.0783095 0.10827663 -0.084145464
0.04726172 -0.058027904 -0.0010841608 0.02334944 -0.10755182 -0.004836857 -0.07554223 0.014328659
-0.008072621 0.11319741 -0.005313422 0.09337563 0.066175304 -0.020622792 0.03282481 -0.0006062561
0.10333179 -0.011915679 -0.10370796 0.09720746 -0.045149866 -0.07732452 0.03676393 0.017420668
-0.10886439 0.059440244 -0.08823343 -0.023346063 0.11993442 -0.08746855 -0.019701868 -0.10375087
0.003302703 0.05303739 -0.10280349 0.023288807 0.0775757 0.073896796 0.11750997 -0.09837018
0.04196535 0.09511764 0.014332798 -0.023697985 0.052158907 -0.0745882 0.022450265 0.11997821
0.10264195 -0.12141082 -0.06694457 0.1212817 -0.11512917 0.05304013 -0.066467255 0.0003183679
0.010091116 -0.051424034 0.03430319 0.08638034 -0.011059743 -0.07414019 0.062914334 0.078389175
-0.095118925 -0.06901622 0.007734646 0.088651985 0.002248976 -0.12257054 0.04448761 0.011805963
-0.12353114 -0.09575928 -0.08168735 0.09574093 -0.12146327 -0.013697634 0.07958251 0.0301149
0.0040900693 -0.036370344 0.085419394 -0.069596045 0.05839076 0.028475692 0.11048779 0.036843624
-0.1069281 0.11622749 -0.070449725 0.10748846 -0.02989568 -0.0793271 0.03459957 -0.0533016
0.12019503 0.03375327 0.086710855 -0.03264314 -0.04310084 0.06969976 -0.014691593 0.08257179
0.043300617 -0.111485966 0.05117244 0.036999043 0.0832348 0.08597265 0.0148939025 -0.0767859
0.04248132 -0.09400206 -0.04605717 -0.09918917 0.048028078 -0.01805973 0.018932287 -0.06247753
0.046089444 0.066059016 -0.10826967 0.12437257 -0.06793484 0.11969043 0.034399822 0.037049558
-0.017080376 -0.0771412 -0.114158176 0.00493289 -0.030409575 0.009580252 -0.06597939 0.06812818
0.09681198 -0.046236046 0.07708962 0.11846998 0.063482784 0.019010086 -0.06908208 -0.1149194
-0.059416644 -0.045602575 0.049719073 0.026271036 0.114341594 -0.11465583 -0.07330231 -0.074124165
0.038326234 0.098487385 0.11715265 0.1087225 -0.07028726 -0.006770972 0.07471889 0.06806392
0.07697361 0.050447717 -0.018396327 -0.004711971 0.032869514 0.04019289 0.013939861 -0.09402244
00000000: 2d14 02be 31bc afbd 7d06 963d bbd9 e03d
00000010: 66e8 70bc e74c 753d 99f2 a03d c8cf abbc
00000020: e684 acbd b6c1 fb3d 5515 e0bd 8bc7 943d
00000030: 0bf3 3cbd 0e40 43bd 14d1 85bd 85ca acbd
00000040: 907d 47bd 389e 433d ca7b 873d 9b00 74bd
00000050: 1a4a ba3d f883 d53d b7fe 2fbd 0b32 febd
00000060: 31c2 c4bd d649 90bc ac03 38bd 5dfe e53d
00000070: 9147 e63c f18f b3bd 9bcd b6bd 4adf 0bbd
00000080: fa41 0b3d f029 f53d 1e9c f13d fca9 bb3c
00000090: f80b 1d3d 1a2c 19bd 9778 d9bd b543 0abd
000000a0: 526c ca3a e525 043d 0b97 6d3a dd8d d1bd
000000b0: 62d7 c33d 2e72 80bd 6f2a 293c ba26 cfb9
000000c0: c9b9 5ebd 5aab 9cbd 21c1 7bbd 8c1e 1fbd
000000d0: 2e68 0dbb ff09 953d 06c5 df3c 627f 89bd
000000e0: ea7e e03d b88f 2bbd b1c5 45bd 8c5d d83d
000000f0: b467 52bd d3b5 b6bd 204c 773d 8f4e f4b9
00000100: eba6 893d 4fce cd3d 238d 673d 4005 4ebc
00000110: 04ca b43d d9bc 90bc 1333 883d b4b8 a33d
00000120: 497e 04bd 5844 f1bc 0ccf c2bd e9ed bd3c
00000130: a3c5 9abd 119f 873d 3565 c6bd 59ca 113d
00000140: d38e f23d cf08 b8bd c838 bd3d bd26 013d
00000150: 8b9b b33d bb60 a03d 23c0 dd3d 7554 acbd
00000160: 8195 413d abae 6dbd 661a 8eba 5347 bf3c
00000170: 2144 dcbd 7f7e 9ebb e2b5 9abd c0c2 6a3c
00000180: 0743 04bc 0bd4 e73d 371c aebb b93b bf3d
00000190: eb86 873d 21f1 a8bc 4f73 063d 28ed 1eba
000001a0: 9e9f d33d fb39 43bc d764 d4bd b414 c73d
000001b0: 11ef 38bd 515c 9ebd c695 163d cab5 8e3c
000001c0: 4bf4 debd 9d77 733d bbb3 b4bd 3e40 bfbc
000001d0: 2da0 f53d b622 b3bd d065 a1bc 567b d4bd
000001e0: 2972 583b bc3d 593d a38a d2bd 2bc8 be3c
000001f0: 02e0 9e3d 3457 973d 11a9 f03d 4e76 c9bd
00000200: dce3 2b3d 0acd c23d 1dd4 6a3c 4722 c2bc
00000210: 94a4 553d b3c1 98bd 9ee9 b73c 23b7 f53d
00000220: f135 d23d 3ca6 f8bd 3c1a 89bd 8a62 f83d
00000230: d8c8 ebbd 9b40 593d fc1f 88bd 9eea a639
00000240: 3555 253c 02a2 52bd 8081 0c3d 2de8 b03d
00000250: ed33 35bc d0d6 97bd 3bd9 803d 818a a03d
00000260: b6cd c2bd 6058 8dbd ea72 fd3b 2c8f b53d
00000270: 8e63 133b 4306 fbbd a438 363d cc6d 413c
00000280: e5fd fcbd 711d c4bd b34b a7bd d213 c43d
00000290: bcc1 f8bd 0b6c 60bc 28fc a23d 86b3 f63c
000002a0: fd05 863b 12f9 14bd 5df0 ae3d 5f88 8ebd
000002b0: 262b 6f3d db45 e93c 6c47 e23d 57e9 163d
000002c0: 1ffd dabd ae08 ee3d f247 90bd e922 dc3d
000002d0: c9e7 f4bc 3f76 a2bd 47b8 0d3d c752 5abd
000002e0: d028 f63d de40 0a3d 7695 b13d d0b4 05bd
000002f0: 828a 30bd bfbe 8e3d 02b5 70bc 661b a93d
00000300: fd5b 313d c152 e4bd 319a 513d 4f8c 173d
00000310: 0277 aa3d 6e12 b03d 8e05 743c ed41 9dbd
00000320: e500 2e3d 2784 c0bd 71a6 3cbd b123 cbbd
00000330: 17b9 443d 00f2 93bc e217 9b3c 70e8 7fbd
00000340: 49c8 3c3d f349 873d 7dbc ddbd 0cb7 fe3d
00000350: 6c21 8bbd 4220 f53d d4e6 0c3d 47c1 173d
00000360: 25ec 8bbc 35fc 9dbd c3cb e9bd 15a4 a13b
00000370: 801d f9bc 7df6 1c3c 3420 87bd ca86 8b3d
00000380: 5c45 c63d 0262 3dbd 2ae1 9d3d 64a0 f23d
00000390: 4303 823d 0abb 9b3c e87a 8dbd dd5a ebbd
000003a0: de5e 73bd c4c9 3abd 3aa6 4b3d 5b36 d73c
000003b0: ed2b ea3d add0 eabd 861f 96bd 69ce 97bd
000003c0: f8fb 1c3d c1b3 c93d bbed ef3d e7a9 de3d
000003d0: c4f2 8fbd 08df ddbb 3806 993d 1965 8b3d
000003e0: 57a4 9d3d 44a2 4e3d e5b3 96bc e166 9abb
000003f0: 2fa2 063d 4da1 243d 0464 643c d68e c0bd

model.2.bias f4 [64]
0.0050391466 0.051373977 -0.050223827 -0.009950704 -0.08327748 -0.09037427 -0.049993593 -0.042626698
-0.050643224 0.027428603 -0.11543444 0.06615215 -0.011739871 -0.021451928 -0.05058177 -0.065178655
-0.106292635 0.101641156 -0.11494621 -0.047788527 -0.113832965 -0.11931737 0.06773468 -0.013091088
-0.12174105 0.09660543 -0.07911502 0.0071487054 0.007170817 0.046375725 -0.08242737 0.049208518
0.045100752 0.00022043617 -0.081379056 0.01319431 -0.09267842 -0.086528674 0.056489952 0.070165955
0.035234757 0.04091434 0.0040210774 0.021980153 0.095142625 0.038153104 -0.028927548 0.057095923
0.10935991 0.037686843 -0.10385986 0.09771187 0.118898965 -0.024788586 -0.06699233 -0.08246036
-0.11774869 0.055670504 -0.019642346 -0.06518996 0.023213184 0.108873636 0.04877668 -0.01817986
00000000: 6d1f a53b 856d 523d 80b7 4dbd 4708 23bc
00000010: 628d aabd 2516 b9bd 15c6 4cbd 5599 2ebd
00000020: 456f 4fbd f3b1 e03c e468 ecbd c77a 873d
00000030: 9758 40bc f4bb afbc d42e 4fbd 637c 85bd
00000040: f4af d9bd 3d29 d03d eb68 ebbd e7bd 43bd
00000050: 4221 e9bd aa5c f4bd 7bb8 8a3d 017c 56bc
00000060: 5f53 f9bd 11d9 c53d 0e07 a2bd b03f ea3b
00000070: 2cf9 ea3b 79f4 3d3d aecf a8bd df8e 493d
00000080: 91bb 383d e224 6739 10aa a6bd f22c 583c
00000090: 2fce bdbd f235 b1bd 0262 673d 2bb3 8f3d
000000a0: 5252 103d cc95 273d 3ec3 833b b90f b43c
000000b0: 23da c23d 6e46 1c3d 77f9 ecbc 6add 693d
000000c0: 17f8 df3d 855d 1a3d 7ab4 d4bd 291d c83d
000000d0: 4d81 f33d 6f11 cbbc 4633 89bd fae0 a8bd
000000e0: 3a26 f1bd c106 643d fce8 a0bc 5082 85bd
000000f0: 9329 be3c 24f9 de3d 0eca 473d eeed 94bc

model.4.weight f4 [1, 64]
0.045572076 0.09089224 -0.10987104 0.099817134 0.06439091 -0.037811562 -0.0480282 -0.1023625
-0.029278325 -0.029400675 0.037735444 0.027017731 -0.00227101 0.029721577 9.4785704e-05 -0.035710707
-0.059339266 0.11420898 0.10724451 -0.017880708 -0.00977067 -0.03780382 0.025547408 -0.08746022
0.024296913 -0.0699721 0.048047755 0.09440458 0.03830363 -0.09878253 -0.07147932 -0.08850579
0.098382995 0.09295187 0.051727924 0.004863074 -0.09437627 -0.0007267805 0.012556671 0.03530357
-0.017102227 -0.08442793 0.015118733 -0.07861698 0.045444757 0.104415886 0.08563248 0.040628564
-0.008282176 -0.10061317 -0.026237285 -0.07226569 -0.11110073 0.11742108 -0.028187823 -0.12482577
0.043210953 -0.03164382 -0.058024123 0.06904813 -0.027856125 -0.0014883168 -0.016459793 -0.09587863
00000000: c9a9 3a3d b625 ba3d 1104 e1bd ed6c cc3d
00000010: 62df 833d 4ce0 1abd 38b9 44bd 6ea3 d1bd
00000020: 19d9 efbc afd9 f0bc 7b90 1a3d 4a54 dd3c
00000030: 3ad5 14bb aa7a f33c b0c7 c638 6445 12bd
00000040: bb0d 73bd 66e6 e93d 02a3 db3d 907a 92bc
00000050: 2915 20bc 2ed8 1abd cc48 d13c 581e b3bd
00000060: 520a c73c 884d 8fbd b9cd 443d 3057 c13d
00000070: 44e4 1c3d 7f4e cabd c063 92bd 8642 b5bd
00000080: 067d c93d 8d5d be3d a9e0 533d 6c5a 9f3b
00000090: 5948 c1bd 6a85 3eba 7fba 4d3c 7a9a 103d
000000a0: f819 8cbc 8de8 acbd 90b4 773c f001 a1bd
000000b0: 4824 3a3d ffd7 d53d 1560 af3d 236a 263d
000000c0: f7b1 07bc 470e cebd 93ef d6bc 0900 94bd
000000d0: c888 e3bd 777a f03d 26ea e6bc a7a4 ffbd
000000e0: f8fd 303d f39c 01bd b4aa 6dbd 1b69 8d3d
000000f0: 8732 e4bc a013 c3ba b0d6 86bc 045c c4bd

exp_avg f4 [64, 4]
-0.006385462 -0.0051362277 -0.00088396424 0.0065389937 -0.008691512 0.0028041075 -0.0017266128 0.01277764
-0.0013447608 0.0042250804 -0.0008564477 0.006761174 -0.0005369294 0.0017938466 -0.0002642181 0.0037098313
0.004902702 0.00039493322 0.0012951717 -0.00831793 0.0022323874 0.0055441763 5.5844936e-05 0.0018122477
-0.004921404 -0.0074504125 0.0013633814 -0.006077462 -0.0041555883 0.0012123734 -0.0005589441 0.0048750164
0.00778731 0.005335069 0.00080024265 -0.007889804 -0.0005720201 -0.00416931 0.00061542896 -0.0039479
-0.010055006 -0.00076887413 -0.0020645363 0.01035432 0.009186004 -0.00021734659 0.0011350538 -0.006280887
0.0011205196 0.0061797956 -0.00016602786 0.0014078942 -0.002466816 -0.006271796 0.0011114472 -0.0051488793
0.00078429526 0.0011547585 -0.00011374263 -0.00042519168 -0.002168609 -0.008155227 0.0018489634 -0.011468248
0.0006020751 0.002873955 -0.0005240962 0.003347576 0.0058325985 -0.005122559 0.0012288913 -0.010373339
-0.0045918548 0.0003613205 -0.000697527 0.002282068 0.008026649 0.002634816 0.0014471078 -0.0065836445
0.0042918273 0.0010522159 0.0011519177 -0.003364405 0.0018578487 0.004081254 -0.0004507591 0.0028140212
-0.0005822198 -0.0013423453 -8.7759776e-07 -0.0008624468 -0.0015849437 -0.0023869697 0.00024282414 -0.002440172
0.01678115 0.007977702 0.0030466272 -0.017795328 -0.0019692297 -0.006472852 0.0012054967 -0.006382919
-0.004630438 -0.0009394174 -0.00049879734 0.002667314 -0.008248522 -0.00221242 -0.0019107106 0.007457109
0.00027918798 0.0027957289 -0.00030633237 -0.000112076516 0.0008763658 0.005568635 -0.0003357146 0.0016762675
-0.0016288942 -0.0037226372 -1.7500599e-05 0.0002852306 -0.0026374562 0.004196376 -0.0009717978 0.006698821
0.008646229 0.0037843056 0.0016190923 -0.0074239 -0.009208999 -0.0049434663 -0.0016866555 0.008917931
0.005409152 0.0021235575 0.0012156375 -0.003907892 0.0024860408 0.0018640596 0.00017205773 -0.0015630593
0.013778815 0.006887681 0.0023263188 -0.013683708 -0.0022047262 0.004307992 -0.0014124298 0.0074873283
-0.0021359785 0.002872628 -0.0012124203 0.007966281 0.0031509914 0.0037086494 7.199102e-05 0.0008174072
-0.0017003064 -0.0057644756 5.275557e-05 -0.0015577803 0.0023695778 0.0016215389 9.1967784e-05 -0.0019695172
-0.0016447948 -0.0020491756 -0.00025808948 0.0013827403 -0.0022966855 0.006730601 -0.002125152 0.0133264065
-0.0034770789 0.0024711809 -0.0005373501 0.0030523795 -0.0047629597 -0.006362135 0.0012772403 -0.006372092
0.0068682237 0.0018842414 0.00093416305 -0.0050407927 0.0033938899 0.0037026922 -0.00023469652 0.0011886024
-0.010193582 -0.0033145552 -0.0016568796 0.009730862 -0.009867738 -0.0034352986 -0.0018797852 0.011669848
-0.003743118 -0.0040582074 9.422011e-07 8.315369e-05 0.0029260279 0.0035781134 0.000100436126 -0.0012251212
-0.012048566 -0.0057526836 -0.0019648736 0.010500323 0.0035428004 0.0022615534 0.00061210006 -0.003333743
-0.004313881 -0.003512023 -0.0004888615 0.0020841914 -0.0028937943 -0.0049380367 0.000655937 -0.004398748
0.008865922 0.0032691108 0.0013256058 -0.0057242997 0.003019002 0.0077865045 -0.0011812111 0.008358318
0.013266524 0.0058701346 0.0022300032 -0.012989429 0.003446591 0.0021566018 0.0004295069 -0.0007950979
-0.014424531 -0.0031619954 -0.0026877122 0.013331838 0.0059770104 -0.0067748902 0.0027043691 -0.017604012
0.0028567433 0.0038806791 -0.00022666987 0.0011744516 -0.0009980696 -0.003303739 0.0004389665 -0.0035672516
00000000: 233d d1bb cd4d a8bb d6b9 67ba 0e45 d63b
00000010: d866 0ebc 1ec5 373b 834f e2ba 4e59 513c
00000020: af42 b0ba 8b72 8a3b 3b83 60ba d78c dd3b
00000030: b9c0 0cba 811f eb3a c186 8ab9 a420 733b
00000040: d8a6 a03b 0a0f cf39 c0c2 a93a ed47 08bc
00000050: 3f4d 123b ecab b53b 0b3b 6a38 f188 ed3a
00000060: bb43 a1bb 9722 f4bb 7db3 b23a 7225 c7bb
00000070: 9a2b 88bb 80e8 9e3a 1b86 12ba 9abe 9f3b
00000080: b12c ff3b cdd1 ae3b 60c7 513a 3d44 01bc
00000090: 9ef3 15ba b59e 88bb bd54 213a 635d 81bb
000000a0: c0bd 24bc 458e 49ba 2c4d 07bb 2aa5 293c
000000b0: e580 163c 88e7 63b9 16c6 943a e6cf cdbb
000000c0: 66de 923a e27f ca3b c417 2eb9 1789 b83a
000000d0: 4eaa 21bb a383 cdbb fbad 913a eeb7 a8bb
000000e0: 2a99 4d3a 445b 973a 1c89 eeb8 43ec deb9
000000f0: 391f 0ebb 809d 05bc eb58 f23a 52e5 3bbc
00000100: 93d4 1d3a f758 3c3b 8063 09ba 0163 5b3b
00000110: 621f bf3b 24db a7bb c012 a13a f0f4 29bc
00000120: 4577 96bb 9e6f bd39 3fda 36ba bf8e 153b
00000130: 3582 033c e1ac 2c3b e1ac bd3a 9dbb d7bb
00000140: 75a2 8c3b 82ea 893a f2fb 963a 597d 5cbb
00000150: 0f83 f33a 0abc 853b dd53 ecb9 716b 383b
00000160: 1ca0 18ba a2f1 afba 0f94 6bb5 d315 62ba
00000170: e3bd cfba b56e 1cbb 9c9e 7e39 4beb 1fbb
00000180: 9f78 893c e8b4 023c eca9 473b 82c7 91bc
00000190: 310e 01bb 381a d4bb c201 9e3a ce27 d1bb
000001a0: eeba 97bb 3c43 76ba b9c1 02ba 1ace 2e3b
000001b0: cf24 07bc 40fe 10bb cf70 faba c45a f43b
000001c0: fa5f 9239 8c38 373b 3c9b a0b9 9f0a ebb8
000001d0: eabb 653a 1979 b63b da02 b0b9 34b6 db3a
000001e0: 9f80 d5ba 7df7 73bb 40ce 92b7 018b 9539
000001f0: 2cd9 2cbb c181 893b 3fc0 7eba c981 db3b
00000200: eaa8 0d3c 1d02 783b b937 d43a 3044 f3bb
00000210: 57e1 16bc cdfc a1bb c412 ddba 831c 123c
00000220: 413f b13b 622b 0b3b 0756 9f3a c60d 80bb
00000230: d8ec 223b 7653 f43a 656a 3439 91df ccba
00000240: 8ac0 613c 0eb2 e13b 2775 183b a231 60bc
00000250: 2b7d 10bb 0e2a 8d3b 4821 b9ba 4358 f53b
00000260: c6fb 0bbb b342 3c3b 13ea 9eba 0185 023c
00000270: dd80 4e3b d00c 733b e2f9 9638 4547 563a
00000280: d1dc deba ede3 bcbb dd45 5d38 6f2e ccba
00000290: eb4a 1b3b d189 d43a d4de c038 0413 01bb
000002a0: 2896 d7ba 764b 06bb 2f50 87b9 113d b53a
000002b0: fd83 16bb 608c dc3b 2246 0bbb 0057 5a3c
000002c0: b4df 63bb 89f3 213b f4dc 0cba 6e0a 483b
000002d0: 9a12 9cbb 7579 d0bb 1369 a73a fbcc d0bb
000002e0: d60e e13b a6f8 f63a 9fe2 743a 3c2d a5bb
000002f0: 066c 5e3b dea8 723b de18 76b9 e1ca 9b3a
00000300: fb02 27bc 0239 59bb a72b d9ba 326e 1f3c
00000310: 4bac 21bc bf22 61bb 2063 f6ba e432 3f3c
00000320: 194f 75bb b6fa 84bb 91eb 7c35 cc62 ae38
00000330: 9ac2 3f3b c87e 6a3b 3ca1 d238 3f94 a0ba
00000340: 5967 45bc 0281 bcbb 1cc5 00bb 8c09 2c3c
00000350: 542e 683b 9236 143b 5775 203a ed7a 5abb
00000360: 755b 8dbb f829 66bb f126 00ba ee96 083b
00000370: d0a5 3dbb 41cf a1bb 30f3 2b3a 5f23 90bb
00000380: 5f42 113c 943e 563b f3bf ad3a e892 bbbb
00000390: 73da 453b ef25 ff3b ded2 9aba 54f1 083c
000003a0: d65b 593c 425a c03b 3f25 123b 9dd1 54bc
000003b0: 34e0 613b c655 0d3b 712f e139 1e6e 50ba
000003c0: de54 6cbc 7b39 4fbb 5424 30bb c86d 5a3c
000003d0: ccda c33b e6ff ddbb c93b 313b 4a36 90bc
000003e0: 3338 3b3b fe52 7e3b 3bae 6db9 0ef0 993a
000003f0: a9d1 82ba 8b83 58bb 1625 e639 8dc8 69bb
